integration/controllers/sim2Actual/expDDPG.pyWebots/actor.pth (torch, 496663 bytes, 6 tensors)

l1.weight f4 [400, 3]
0	0xbe8f4c91	-0.27988103
1	0xbe840e3b	-0.25792107
2	0xbe467aaa	-0.1938273
3	0x3ed1b799	0.40960386
4	0x3c1fda4f	0.009756639
5	0x3d486428	0.04892364
6	0xbe271690	-0.163172
7	0xbee2f6b0	-0.44328833
8	0x3db7b008	0.08969122
9	0xbe40775c	-0.18795532
10	0xbf03e817	-0.51526016
11	0x3ece6e0e	0.4031834
12	0x3ec25a28	0.3795941
13	0xbd35e280	-0.04440546
14	0xbf10183d	-0.56286985
15	0xbea3ff6e	-0.32030815
16	0x3eee1c84	0.4650613
17	0xbf09ced0	-0.53831196
18	0x3e58c2fc	0.2116813
19	0x3ed0faa3	0.4081622
20	0x3cec5d08	0.028852955
21	0xbeab083e	-0.33404726
22	0x3e41242c	0.18861455
23	0xbef16d89	-0.4715388
24	0xbeb8fcc5	-0.36130348
25	0x3e4b0789	0.19827093
26	0x3f0f825a	0.56058276
27	0x3ec9cf25	0.3941585
28	0xbee626b9	-0.44951418
29	0x3e91f8ae	0.2851004
30	0x3f1015fc	0.56283545
31	0xbe34ea92	-0.17667606
32	0x3d7e3150	0.062058747
33	0xbdc2e054	-0.095154434
34	0xbed79562	-0.42106158
35	0x3e86d25e	0.26332372
36	0xbf13a7d6	-0.5767797
37	0xbedb2238	-0.42799544
38	0xbf1184e3	-0.56843394
39	0xbebf6b64	-0.3738662
40	0x3f0bb2e8	0.54569864
41	0xbdb27896	-0.08714406
42	0xbd5b8762	-0.053595908
43	0xbe421c16	-0.18956026
44	0xbe3169fa	-0.17325583
45	0xbe8c5805	-0.27410904
46	0xbd2ad260	-0.041704535
47	0x3edec148	0.43506837
48	0x3d16ea44	0.036844507
49	0xbebbbcba	-0.36667424
50	0x3f02079d	0.50792867
51	0x3e0e815c	0.13916534
52	0x3e304f58	0.17217767
53	0x3d99b178	0.075045526
54	0xbdf81264	-0.12112883
55	0xbec4c639	-0.38432482
56	0x3e3b2545	0.18275936
57	0x3daa3d98	0.08312529
58	0x3c482900	0.012216806
59	0xbed931ca	-0.424208
60	0xbeed311e	-0.46326536
61	0x3ee4c534	0.44681704
62	0xbeec7eb3	-0.46190414
63	0x3ec93f5c	0.39306152
64	0x3e4b6a5c	0.19864792
65	0xbe82f911	-0.25580648
66	0xbe6d2fa8	-0.2316271
67	0xbe759f09	-0.23986448
68	0xbe8dcd47	-0.27695677
69	0x3ce215a0	0.027598202
70	0xbf060d42	-0.5236398
71	0x3ea175a2	0.3153506
72	0x3d906f32	0.07052459
73	0xbe129788	-0.14315617
74	0x3ea54919	0.32282332
75	0x3eb1c3a0	0.34719563
76	0xbd9f02cc	-0.07764205
77	0x3d73f0b0	0.05955571
78	0x3e07923c	0.13239378
79	0xbd41a7d0	-0.04727918
80	0x3e932f44	0.28746998
81	0xbe06e476	-0.13173088
82	0xbe7e74da	-0.24849263
83	0x3e9e15e2	0.3087607
84	0xbe8a682e	-0.27032608
85	0x3e227b76	0.15867409
86	0x3e732899	0.23745956
87	0x3e9559f2	0.29170185
88	0xbde902d0	-0.113774896
89	0x3dccf830	0.100082755
90	0x3dded6dc	0.10880825
91	0xbea53762	-0.32268816
92	0x3e9d789b	0.30756077
93	0x3e6bf874	0.23043996
94	0xbf0731b6	-0.5281023
95	0x3eef81d3	0.46778736
96	0xbf039974	-0.51406026
97	0xbe678a96	-0.2261146
98	0x3efacbdc	0.48983657
99	0xbf0085d9	-0.50204235
100	0x3ebd2f40	0.3695011
101	0xbe66a9ec	-0.22525758
102	0x3e13eb31	0.14445187
103	0xbef735b3	-0.48283157
104	0xbee75365	-0.45180812
105	0x3f09c7f4	0.5382073
106	0xbed5929f	-0.41713426
107	0x3e8d6541	0.27616313
108	0xbf11bce9	-0.5692888
109	0x3e9d90a8	0.30774426
110	0x3e675480	0.22590828
111	0x3ec3b21e	0.3822183
112	0xbef01dd8	-0.4689777
113	0x3ea7bb94	0.32760298
114	0x3de596ed	0.112104274
115	0x3efdff17	0.4960868
116	0x3eb7af36	0.35875863
117	0x3ee7c754	0.45269263
118	0x3e33f4ff	0.17573927
119	0x3f004f4d	0.50121003
120	0x3f02e7bb	0.5113484
121	0xbf08347f	-0.532051
122	0xbdd0fb66	-0.102042004
123	0xbe85b760	-0.26116467
124	0xbf0582b8	-0.52152586
125	0x3ef734ac	0.48282373
126	0x3e821d20	0.25412846
127	0xbe4662a6	-0.19373569
128	0xbeb097aa	-0.3449071
129	0xbe30de48	-0.17272294
130	0x3dd3e5d8	0.103465736
131	0xbe3572d2	-0.17719582
132	0xbe58dfae	-0.21179077
133	0xbcf0cb00	-0.029393673
134	0xbdde82a4	-0.108647615
135	0x3f004e1c	0.50119185
136	0xbe9d7d87	-0.30759832
137	0xbe8e4611	-0.2778783
138	0x3ec9fb80	0.39449692
139	0x3eb500de	0.35352224
140	0xbe1ac280	-0.15113258
141	0x3cb9e3f8	0.022691712
142	0x3effa1ff	0.4992828
143	0xbef62b50	-0.4807992
144	0x3f05dc8e	0.52289665
145	0x3eecb0f0	0.46228743
146	0x3ea257c2	0.3170758
147	0x3db06ef0	0.0861491
148	0x3e124670	0.14284682
149	0xbe77715a	-0.24164334
150	0xbe981227	-0.2970135
151	0x3df25820	0.11833215
152	0xbe8aea91	-0.27132085
153	0xbea3fb1a	-0.32027513
154	0x3dafafd0	0.085784554
155	0x3dcfa2f8	0.10138506
156	0xbd216b00	-0.039408684
157	0x3d54b810	0.05193335
158	0x3dbac2d0	0.09119189
159	0x3e091f5a	0.13390866
160	0x3ea56ec8	0.32311082
161	0xbeac8307	-0.33693716
162	0xbef79bcc	-0.4836105
163	0x3ed38b0a	0.41317016
164	0x3e86cf80	0.26330185
165	0xbec7f94c	-0.39057386
166	0x3efdf754	0.4960276
167	0xbb4e4300	-0.003147304
168	0x3f0e1c58	0.55512
169	0xbdd6f208	-0.104953825
170	0x3e79d62a	0.24398103
171	0x3ed769ec	0.42073
172	0x3e4a4e25	0.19756372
173	0x3da2d298	0.07950324
174	0xbe09dec2	-0.13463882
175	0x3d5a9e00	0.053373337
176	0xbf0b5b2a	-0.5443598
177	0xbf035abe	-0.51310337
178	0xbeb5b17e	-0.35486978
179	0xbe5e0442	-0.21681312
180	0x3eb15d56	0.34641522
181	0xbdd224fd	-0.10260961
182	0x3f11f8cf	0.57020277
183	0xbe88856e	-0.266643
184	0xbe0f88f4	-0.14017087
185	0xbea4e568	-0.32206273
186	0x3eddfcc3	0.43356904
187	0xbc843e10	-0.016142875
188	0xbe268de7	-0.16265069
189	0x3e721717	0.2364162
190	0xbe9ceeed	-0.30651036
191	0xbeb2647e	-0.34842294
192	0x3dc800e8	0.09765798
193	0x3e45c408	0.19313061
194	0xbedb256e	-0.42801994
195	0xbe34976a	-0.17635885
196	0x3e852436	0.2600419
197	0xbe0789c7	-0.13236152
198	0xbe9bcdd5	-0.30430475
199	0xbe583e46	-0.21117505
200	0xbe3b0bbc	-0.18266195
201	0xbd350cd0	-0.044201672
202	0xbdaa7117	-0.083223514
203	0x3eeaf622	0.4589091
204	0xbeb26aa3	-0.34846982
205	0x3ea3451b	0.3188866
206	0xbec97b19	-0.3935173
207	0xbe656a2e	-0.22403786
208	0xbe5137fe	-0.20431516
209	0x3e8b4b04	0.2720567
210	0xbee1814e	-0.44043964
211	0xbefd7a4c	-0.49507368
212	0xbec27422	-0.37979227
213	0x3eccb215	0.39979616
214	0x3e3d50c1	0.18487836
215	0x3ea4ca18	0.32185435
216	0xbea01e19	-0.31272963
217	0x3dffff54	0.12499872
218	0xbee65a15	-0.44990602
219	0x3e09af05	0.13445671
220	0xbe1c7dbc	-0.15282339
221	0x3efe3876	0.4965245
222	0x3e77e29e	0.24207541
223	0x3eb34a1a	0.35017473
224	0xbe8263a1	-0.25466636
225	0xbea955d0	-0.33073282
226	0x3c82b31e	0.01595455
227	0x3e33f85e	0.17575213
228	0xbf06c60d	-0.5264595
229	0x3efbe4fe	0.49198145
230	0x3e20c04d	0.15698357
231	0x3ed4e2e2	0.41579348
232	0xbe8efddf	-0.27928063
233	0xbca71229	-0.020394402
234	0x3f00aed0	0.5026674
235	0xbe6d1f7f	-0.23156546
236	0xbeece148	-0.46265626
237	0x3eeefd70	0.46677732
238	0x3e4dd3e9	0.20100369
239	0x3eaeb0e5	0.34119335
240	0x3ea4f442	0.32217604
241	0xbee2d92c	-0.44306314
242	0xbe9ca61e	-0.30595487
243	0x3dbb7f98	0.09155196
244	0x3c825fa0	0.015914738
245	0xbe396530	-0.18105006
246	0x3e240464	0.160173
247	0x3eb02546	0.34403437
248	0xbe7d7726	-0.24752483
249	0xbee0351b	-0.43790516
250	0x3df741a8	0.1207307
251	0xbf09f2d6	-0.53886163
252	0x3e9b16ed	0.30290928
253	0xbee06555	-0.4382731
254	0x3ef0cbcb	0.47030482
255	0x3ec9cf34	0.39415896

l1.bias f4 [400]
0	0xbebcde7f	-0.368885
1	0x3e1950c9	0.14972223
2	0xbef4a761	-0.4778395
3	0xbe956f97	-0.291867
4	0xbf0b798d	-0.54482347
5	0xbd425c20	-0.04745114
6	0xbd9f63ca	-0.07782705
7	0x3e236bd8	0.15959108
8	0x3ea89d2e	0.3293242
9	0x3e85ee10	0.2615819
10	0xbe9d3679	-0.30705622
11	0xbee07c7d	-0.43844977
12	0x3b1ba500	0.002374947
13	0x3e948490	0.29007387
14	0x3dc76c10	0.09737408
15	0xbe7685de	-0.24074504
16	0x3efde479	0.49588373
17	0xbe82a502	-0.25516516
18	0x3ef310aa	0.4747365
19	0xbc7abdc0	-0.015304029
20	0x3dfcde88	0.12347132
21	0xbe758b28	-0.23978865
22	0x3f081134	0.5315125
23	0xbe65cd64	-0.22441632
24	0x3ee39724	0.4445125
25	0xbec7ced0	-0.39024973
26	0xbf0bceea	-0.546126
27	0x3ef84a6e	0.48494285
28	0x3e72ea9e	0.23722312
29	0xbe80d1b9	-0.25160006
30	0x3e5c75ac	0.21529263
31	0xbca4ed40	-0.02013266
32	0x3e24df35	0.16100772
33	0xbdd70ac0	-0.10500097
34	0x3eed56f4	0.46355402
35	0x3f016758	0.50548315
36	0xbd0428f0	-0.032265604
37	0xbecdc87a	-0.40192014
38	0x3ec49184	0.3839227
39	0xbeb6b4ff	-0.35684964
40	0xbd1b08d5	-0.03785022
41	0xbeec7084	-0.46179593
42	0xbec4d541	-0.3844395
43	0xbf0138a4	-0.5047705
44	0xbe0e2c2e	-0.1388404
45	0x3efacc71	0.489841
46	0xbf06c8ec	-0.5265033
47	0x3f072cf6	0.5280298
48	0x3a72a4dc	0.00092561333
49	0xbe8806db	-0.2656773
50	0x3e171bc4	0.14756685
51	0x3c812d00	0.015768528
52	0xbe340808	-0.17581189
53	0x3e1f9c5a	0.15586987
54	0xbefc92ba	-0.49330693
55	0xbea1fa0e	-0.3163609
56	0x3ed16a53	0.4090143
57	0x3f087a74	0.5331185
58	0xbed77efe	-0.42089075
59	0xbde2ba80	-0.11070728
60	0x3db390d2	0.08767857
61	0x3e443328	0.1916014
62	0x3e79901a	0.24371377
63	0x3ef1aeb7	0.4720361
64	0xbecba233	-0.39772186
65	0x3e93036f	0.28713557
66	0x3ef6ded1	0.4821687
67	0x3ee03e56	0.4379756
68	0x3f136408	0.5757451
69	0xbea1636e	-0.3152117
70	0xbe891972	-0.26777226
71	0x3e8e4727	0.2778866
72	0x3ecadaa9	0.3961995
73	0x3e8a6eda	0.27037698
74	0x3f00512f	0.50123876
75	0x3f052c5e	0.52020824
76	0x3ecc719d	0.3993043
77	0x3ea91b43	0.33028612
78	0x3ed31acf	0.4123139
79	0xbd262697	-0.040564146
80	0x3ea4cd19	0.32187727
81	0xbeccfeec	-0.4003824
82	0xbde19054	-0.110138565
83	0x3e9fddda	0.31223947
84	0xbe7b3ae9	-0.24534191
85	0x3e8a9c9a	0.27072603
86	0x3e930e57	0.28721878
87	0xbe90405e	-0.28174108
88	0xbef8bfa4	-0.4858371
89	0x3ebb2a4f	0.36555716
90	0x3d9b9930	0.075975776
91	0xbf048b30	-0.51774883
92	0xbe8417fe	-0.25799555
93	0xbe8d3860	-0.27582073
94	0x3f0f565e	0.5599116
95	0x3efd6463	0.4949065
96	0x3e81a947	0.2532446
97	0x3e1538bd	0.14572425
98	0x3ed2389e	0.4105882
99	0x3e61dfd4	0.2205804
100	0xbee05d50	-0.43821192
101	0x3e65dea8	0.22448218
102	0x3d0eb660	0.034841895
103	0xbdeed862	-0.116623655
104	0xbedbb7ac	-0.42913568
105	0xbf0aed38	-0.5426822
106	0x3e919d5a	0.28440362
107	0xbe4f9422	-0.20271352
108	0x3e8a580f	0.27020308
109	0x3c9af8dc	0.018917494
110	0xbed4b645	-0.4154531
111	0x3e3d21ed	0.18469973
112	0x3e9d2af5	0.30696836
113	0xbef8de16	-0.48606938
114	0xbf11a949	-0.56898934
115	0x3f126d83	0.5719835
116	0x3ed02929	0.40656403
117	0x3eb6dfca	0.35717613
118	0x3cf731c0	0.03017509
119	0xbe42b666	-0.19014892
120	0xbe373458	-0.17891061
121	0x3e8934de	0.26798147
122	0x3e141298	0.14460218
123	0x3f0cd4f1	0.5501242
124	0x3f011880	0.5042801
125	0xbea32bbe	-0.3186931
126	0x3ec10415	0.37698427
127	0x3e75164c	0.23934287
128	0x3db49555	0.08817545
129	0x3e484f14	0.19561416
130	0xbee5ed3f	-0.44907567
131	0xbf030608	-0.5118108
132	0xbe8a292a	-0.2698453
133	0xbf047b34	-0.51750493
134	0xbe06bcd2	-0.13157967
135	0x3e432972	0.19058779
136	0x3efdb720	0.49553776
137	0x3ebc4d01	0.367775
138	0xbf135084	-0.5754473
139	0xbeb6d1f4	-0.35707057
140	0xbf0b8210	-0.54495335
141	0x3ea1d8ad	0.31610623
142	0x3e7401e6	0.23828849
143	0x3e8f1a38	0.2794969
144	0x3d518bf1	0.05115885
145	0xbf0ecc30	-0.55780315
146	0x3ee84662	0.45366198
147	0x3cff15b2	0.031138275
148	0xbe3535e6	-0.17696342
149	0xbe54a49c	-0.20765918
150	0x3ebcd63f	0.36882207
151	0x3ede2f32	0.43395382
152	0x3f08de04	0.5346377
153	0xbcfc763e	-0.030818101
154	0x3e760489	0.24025168
155	0x3f06456a	0.5244967
156	0xbe19f392	-0.15034321
157	0x3e85753f	0.26066014
158	0xbe85d6e5	-0.26140514
159	0x3e06b008	0.13153088
160	0x3ea53f24	0.32274735
161	0xbe365f20	-0.17809725
162	0x3d376120	0.04477036
163	0x3d096c50	0.03355056
164	0xbeb9bd9c	-0.36277473
165	0xbe3bb8da	-0.18332234
166	0x3e9c7870	0.30560637
167	0x3ec30455	0.38089243
168	0xbe2cee06	-0.16887674
169	0x3e8ef706	0.2792284
170	0x3ef4bcbf	0.47800252
171	0xbde73928	-0.112901986
172	0x3ea40bdc	0.32040298
173	0x3e085578	0.13313854
174	0xbe78a21c	-0.2428059
175	0xbe6f36d7	-0.23360763
176	0xbefcac46	-0.49350184
177	0xbd75b811	-0.059989993
178	0x3eae9cb0	0.34103918
179	0x3bee22e3	0.0072673424
180	0x3f0d269a	0.55137026
181	0x3edcdabf	0.4313564
182	0xbcb9b576	-0.022669535
183	0xbe8b25fd	-0.2717742
184	0x3bce39ff	0.0062935348
185	0x3d3c6c30	0.046001613
186	0x3d9f6789	0.0778342
187	0xbd5de3c9	-0.05417231
188	0xbe9779f0	-0.29585218
189	0x3dee2a60	0.11629176
190	0x3e9cf16c	0.3065294
191	0x3f0a0deb	0.5392749
192	0x3f00608e	0.5014733
193	0xbedc76e0	-0.43059444
194	0x3ef9029a	0.48634797
195	0xbeab8fa6	-0.33508033
196	0xbe90c9be	-0.28278917
197	0xbe90ff28	-0.2831967
198	0x3ea9a19b	0.33131108
199	0xbf07efb8	-0.53100157
200	0xbea00647	-0.3125479
201	0x3dc766cf	0.09736406
202	0xbdc1405a	-0.09436102
203	0x3e5ea215	0.21741517
204	0xbe9e06ce	-0.30864567
205	0x3f0aeb3b	0.54265183
206	0xbf1010ad	-0.56275445
207	0x3ebba664	0.36650383
208	0x3e5732cb	0.2101547
209	0xbf076239	-0.5288425
210	0x3ebc034c	0.36721265
211	0xbdce2c6c	-0.100670666
212	0xbea49f57	-0.32152817
213	0xbe1dbe7e	-0.15404698
214	0x3e682586	0.22670564
215	0x3e66a668	0.22524416
216	0x3ddfa512	0.109201565
217	0x3e8a0705	0.2695848
218	0xbed30fa4	-0.4122287
219	0x3e9c969a	0.3058365
220	0x3ecff9a1	0.4062014
221	0x3dd922e5	0.10602359
222	0x3e95ace5	0.2923347
223	0xbe90b793	-0.28265056
224	0x3e2ec710	0.17068124
225	0xbde5350c	-0.111917585
226	0x3edddfe6	0.43334883
227	0xbe80c16e	-0.25147575
228	0x3d833db8	0.06408256
229	0xbea0d2e4	-0.31410897
230	0x3ed6cdd9	0.41953924
231	0x3e018be8	0.12651026
232	0xbd216be0	-0.03940952
233	0xbd6d4590	-0.057927668
234	0x3d9f05e1	0.07764793
235	0xbdbe69b3	-0.09297504
236	0xbe9f3147	-0.31092283
237	0x3ea9d80d	0.33172646
238	0x3de45a92	0.111500874
239	0x3e500dd3	0.20317774
240	0xbe977227	-0.2957928
241	0xbebf3473	-0.37344703
242	0x3ecdf43c	0.402254
243	0x3e8638bc	0.2621516
244	0x3e3ccc9c	0.18437427
245	0x3ef45ee7	0.47728655
246	0xbeb5c442	-0.35501295
247	0xbe5f6606	-0.21816263
248	0xbea7d60a	-0.32780486
249	0xbdf799bc	-0.120898694
250	0xbe82cbf7	-0.25546238
251	0x3f1244d7	0.5713629
252	0x3eee93e3	0.46597204
253	0xbf083369	-0.53203446
254	0xbee6f364	-0.45107567
255	0x3ea7253c	0.32645595

l2.weight f4 [300, 400]
0	0xbd3989ef	-0.04529756
1	0x3cda9320	0.026681483
2	0x3d2248f7	0.039620366
3	0xbbeb6880	-0.007184088
4	0xbcc6475d	-0.02420395
5	0x3d3cc487	0.04608586
6	0x3d48bae4	0.049006358
7	0x3ccdbf3a	0.025115598
8	0xbc58f275	-0.0132414
9	0xbcbbbf01	-0.022918226
10	0x3c90b9da	0.017666746
11	0x3d2631ef	0.040574964
12	0xbb92f118	-0.004484307
13	0x3d2e2387	0.04251435
14	0xbcf57956	-0.029965084
15	0xbc6cefd4	-0.014461476
16	0x3d4512b5	0.048113544
17	0xbd1b1e76	-0.037870847
18	0xbbdb2ae9	-0.006688465
19	0xbd307023	-0.043075692
20	0xbcdb5b5a	-0.026776958
21	0x3d449279	0.04799125
22	0x3cc8b7cb	0.024501702
23	0x3c668a0c	0.014070999
24	0x3cb5cc98	0.022192284
25	0x3d07bdf9	0.033140156
26	0xbc408260	-0.011749834
27	0x3ba0ee36	0.0049112095
28	0xbd32568b	-0.043539565
29	0xbce1a57a	-0.027544726
30	0xbd2b405c	-0.041809425
31	0xbbf652ca	-0.0075171934
32	0xbd2c3182	-0.0420394
33	0x3d3c6919	0.045998666
34	0x3b401b95	0.0029313315
35	0xbbbc5c1e	-0.005748286
36	0x3cd40cae	0.025884952
37	0x3ce4431a	0.027864028
38	0xbc0cea63	-0.008600804
39	0x3b345fb9	0.0027522875
40	0x3d566869	0.052345667
41	0xbca3c540	-0.019991517
42	0xbcf564f3	-0.029955363
43	0xbce2392d	-0.027615154
44	0x3cd85c62	0.026411239
45	0x3d506cdb	0.050885063
46	0x3c202f54	0.009776909
47	0xbd3bcffa	-0.04585264
48	0xbbf85799	-0.007578802
49	0xbd1c3d78	-0.03814456
50	0xbb140180	-0.0022583902
51	0x3cb5b81e	0.02218252
52	0x3c33a628	0.010964908
53	0xbd39cf1e	-0.045363538
54	0x3ccad74e	0.024760868
55	0xbd2deb72	-0.042460866
56	0xb9ef6598	-0.00045661326
57	0x3cc6db87	0.0242746
58	0xbd078706	-0.033087753
59	0xbd1951b5	-0.037431438
60	0xbcb75f1f	-0.022384224
61	0x3d35624f	0.044283208
62	0xbc888c31	-0.016668411
63	0xbd2094db	-0.03920446
64	0xbca2b957	-0.019863768
65	0x3d2e8ef8	0.042616814
66	0xbd0d857b	-0.034551125
67	0xbc9c1749	-0.019054072
68	0xbcbd6512	-0.023119483
69	0xbd4086cf	-0.047003563
70	0xbc74a500	-0.014931917
71	0x3aaff4cc	0.0013424396
72	0x3cea8b5f	0.02863091
73	0x3a9df65b	0.0012051569
74	0xbc9c26ea	-0.019061524
75	0x3cdd0c36	0.026983362
76	0x3b261223	0.00253404
77	0x3d4811f1	0.048845235
78	0xbd1771f3	-0.036973905
79	0xbd2862f2	-0.041109987
80	0xbca8d9f1	-0.020611735
81	0xbd30c5b5	-0.043157298
82	0x3d484cd9	0.048901413
83	0xbd391068	-0.04518166
84	0x3cde2964	0.027119346
85	0x3d40393f	0.046929594
86	0x3d5a9a93	0.05337007
87	0xbcbaf9c7	-0.022824181
88	0xbc8a38b0	-0.016872734
89	0x3c586cd5	0.013209541
90	0xbc949306	-0.018136512
91	0xbd02bfee	-0.03192132
92	0x3d1863bd	0.037204493
93	0xbc599a4c	-0.013281416
94	0x3c5fa662	0.013650509
95	0x3cc929ef	0.024556128
96	0x3bd39e6f	0.0064580957
97	0x3c9b8212	0.01898292
98	0xbaace72e	-0.0013191456
99	0x3d49918b	0.049211066
100	0xbcc172e7	-0.02361436
101	0xbc441c08	-0.011969574
102	0xbc6253e0	-0.013813943
103	0x3c23eb94	0.010004897
104	0xbd07dc9d	-0.033169378
105	0xbd1d274d	-0.03836756
106	0xbceda89e	-0.029011067
107	0x3d160c29	0.03663269
108	0x3cc0bb25	0.023526737
109	0xbcca3f3b	-0.024688354
110	0xbcfacc43	-0.030614978
111	0x3d24236c	0.040072843
112	0x3d0278e5	0.031853575
113	0xbc7f3c54	-0.015578348
114	0xbaed8060	-0.0018119924
115	0x3c18f45d	0.0093356045
116	0x3d30e5ba	0.043187834
117	0x3d17ed74	0.037091687
118	0x3cdca4ba	0.026934016
119	0x3c93e21a	0.01805215
120	0x3d45bf39	0.048278067
121	0x3cfd65c8	0.030932322
122	0xbd1c7ebf	-0.038206812
123	0xbc91a6b1	-0.01777968
124	0xbd114489	-0.03546575
125	0xbd40a25f	-0.04702985
126	0x3d0e0721	0.034674767
127	0x3bf75666	0.0075481413
128	0xbb666b49	-0.0035159162
129	0x3ad56b50	0.0016282592
130	0x3d4a08a5	0.04932465
131	0x3d279c11	0.04092032
132	0xbcd2ed5a	-0.025747944
133	0x3d1a47e7	0.037666228
134	0x3d3f3e31	0.04669017
135	0x3d1e037e	0.03857755
136	0x3d4f634f	0.050631817
137	0x3cfb2c2f	0.030660717
138	0xbd36453a	-0.044499613
139	0xbd215abb	-0.039393168
140	0xbc84a684	-0.016192682
141	0xbca6d9d2	-0.020367537
142	0xbc08428a	-0.008316645
143	0x3d22638a	0.03964571
144	0xbc5d91e4	-0.013523553
145	0xbd4bfc52	-0.04980118
146	0x3a276678	0.00063858135
147	0xbce328aa	-0.027729351
148	0x3d47ea59	0.048807476
149	0xbd49b413	-0.049243998
150	0x3c6e49b7	0.014543942
151	0x3d42c6c7	0.04755285
152	0x3c4310e7	0.011905885
153	0x3be920ce	0.0071145063
154	0x3c22e22c	0.009941619
155	0x3d355755	0.04427274
156	0x3ce1e0d2	0.027573023
157	0xbcf88a27	-0.030339314
158	0x3cef2ec2	0.0291971
159	0xbd0677c9	-0.03282908
160	0x3c78aede	0.01517841
161	0xbca6f9b3	-0.020382738
162	0x3d172087	0.036896255
163	0xbcdf8d3d	-0.027289027
164	0xbce79567	-0.028269483
165	0x3d173ec1	0.03692508
166	0xbd0e2f36	-0.034712993
167	0x3d0c3fef	0.03424066
168	0x3cd1d30e	0.025613334
169	0x3d212189	0.039338622
170	0xbbb4fcaf	-0.0055232863
171	0x3d180245	0.03711154
172	0xbc8dff71	-0.017333718
173	0x3cd116da	0.025523592
174	0xbc846be0	-0.01616472
175	0x3cb6ffab	0.022338709
176	0x3c83c4ca	0.016085047
177	0xbd21b2e6	-0.03947725
178	0x3c2f4bc6	0.010699218
179	0x3d1cbabe	0.03826403
180	0xbc9e4975	-0.019322136
181	0x3d4ad692	0.049521036
182	0x3c93e5e7	0.018053962
183	0xbcad0ea7	-0.02112515
184	0x3c88e185	0.016709099
185	0x3cb6f4a2	0.022333447
186	0xbd135dfb	-0.0359783
187	0xbce88680	-0.028384447
188	0xbc2c8ab8	-0.01053112
189	0x3d49f1ab	0.04930274
190	0x3d236497	0.03989085
191	0x3c4625ce	0.012093974
192	0x3d296cdd	0.041363586
193	0x3d2ca913	0.04215343
194	0x3d313b11	0.04326922
195	0x3d14fe2d	0.036375213
196	0x3d44c9b9	0.04804394
197	0xbcea2f40	-0.028586984
198	0xbd045927	-0.032311585
199	0x3d0105dd	0.031499732
200	0xbd3f5e98	-0.04672107
201	0xb9cdffdc	-0.00039291277
202	0xba88352f	-0.0010391827
203	0xbc8e79d6	-0.01739208
204	0xbc061460	-0.008183569
205	0xbd1b6172	-0.037934728
206	0xbcbd36ed	-0.02309748
207	0xbd04a4fa	-0.032383896
208	0xbce2aa44	-0.02766908
209	0xbc88c784	-0.016696699
210	0x3d008ea1	0.03138602
211	0x3d49085f	0.04908025
212	0xbc1f008c	-0.00970472
213	0xbb8ccec0	-0.0042971075
214	0x3d1f4995	0.038888533
215	0x3afc7140	0.0019259825
216	0x3d109911	0.035302226
217	0x3d2a60cc	0.04159622
218	0x3d32bdd1	0.043638054
219	0xbc29f249	-0.010372707
220	0xbb63cdaf	-0.0034760048
221	0x3d420246	0.04736545
222	0xbcdebed6	-0.027190607
223	0x3c72a77c	0.014810439
224	0xbcd809e5	-0.026371906
225	0xbd2bfc80	-0.04198885
226	0x3d1ed8c4	0.038780943
227	0xbc975750	-0.018474251
228	0x3d0ed667	0.03487244
229	0xbd0cc72a	-0.034369625
230	0x38ec38d9	0.000112639456
231	0x3ce33f9e	0.027740296
232	0x3d24b059	0.04020724
233	0xbcdd391d	-0.027004773
234	0x3adc7814	0.0016820454
235	0x3d2fdc87	0.04293492
236	0x3ad07dc0	0.0015906617
237	0x3ca42153	0.020035421
238	0xbd254a11	-0.04035384
239	0xbce128d6	-0.027485292
240	0x3c1cf88c	0.009580743
241	0xbc3d22cc	-0.011543941
242	0xbccc89d8	-0.024968073
243	0x3d3856ed	0.045004774
244	0xbad1f7f2	-0.0016019328
245	0x3cbdbf0e	0.023162391
246	0x3d38765d	0.045034755
247	0xbd478a8b	-0.04871611
248	0x3b02fbe0	0.0019986555
249	0x3c57c004	0.013168339
250	0xbae33c80	-0.0017336756
251	0x3c27191a	0.010198856
252	0x3d245922	0.040124066
253	0xbd129cf5	-0.035794217
254	0xbbeed4b0	-0.007288538
255	0xbcd09436	-0.025461297

l2.bias f4 [300]
0	0xbc491b62	-0.012274595
1	0xbcc120ce	-0.023575213
2	0x3d16f949	0.03685883
3	0x3cfc8842	0.030826692
4	0x3cfd3366	0.030908298
5	0x3d18863d	0.037237395
6	0xbd355d48	-0.044278413
7	0x3d019625	0.03163733
8	0xbd4af43b	-0.049549323
9	0x3d5a11e2	0.05323971
10	0xbd1617de	-0.036643855
11	0xbc716d8c	-0.014735591
12	0xbbc6a089	-0.0060616178
13	0x3c576f75	0.013149132
14	0xbd1596e3	-0.03652085
15	0xbd3ed37a	-0.0465884
16	0xbd440e17	-0.047865
17	0xbb9ebf07	-0.0048445496
18	0x3d39b29e	0.04533636
19	0xbd2dd138	-0.042435855
20	0xbd207bfa	-0.039180733
21	0x3d378742	0.044806726
22	0x3d378029	0.044799957
23	0x3d30c2eb	0.04315464
24	0x3cd79eec	0.026320897
25	0x3c89c9d2	0.016819868
26	0xbcc411e3	-0.02393431
27	0xbc455fa8	-0.012046732
28	0xbd2854b0	-0.04109639
29	0x3d41ac2b	0.047283333
30	0x3cf00cf2	0.029303048
31	0xbbdc931f	-0.0067314054
32	0x3bae8110	0.005325444
33	0x3cdb1afe	0.02674627
34	0xbc17f3b8	-0.009274416
35	0x3c9894ff	0.018625734
36	0x3d26990b	0.040673297
37	0x3bfe7c0a	0.0077662515
38	0x3caedbe6	0.02134509
39	0x3c732329	0.014839926
40	0x3ce4b66e	0.02791902
41	0xbd0b446e	-0.034000807
42	0xbc251d87	-0.010077841
43	0xbce007d4	-0.027347483
44	0xbd3bb114	-0.04582317
45	0xbc34bdff	-0.011031627
46	0x3c145c68	0.0090552345
47	0x3d40a9c4	0.0470369
48	0xbd03f929	-0.03222004
49	0x3d38a77b	0.045081597
50	0xbd517be3	-0.05114354
51	0xbcb5c08d	-0.022186542
52	0xbd078154	-0.03308232
53	0x3c18d50c	0.009328138
54	0xbd461c2e	-0.048366718
55	0xbb85e1fa	-0.0040857764
56	0xbc93feb9	-0.018065797
57	0x3c98e362	0.018663112
58	0x3cd112a0	0.025521576
59	0xbd06aa26	-0.03287711
60	0xbd4220b2	-0.047394462
61	0x3d00c377	0.03143641
62	0xbcf4886a	-0.029850204
63	0x3c0aea7d	0.008478758
64	0x3cd02bf6	0.025411587
65	0x3ce7d830	0.028301328
66	0x3d45e589	0.048314605
67	0x3b0a039c	0.002105928
68	0xbd24af8b	-0.040206473
69	0x3c0bcf9c	0.008533385
70	0xbd307fca	-0.04309062
71	0x3d4cac13	0.04996879
72	0x3d44838f	0.047977027
73	0x3c9ee072	0.019394133
74	0x3cfec6d9	0.031100677
75	0x3d49c0c5	0.049256105
76	0xbca963ed	-0.020677531
77	0x3bc7af30	0.006093882
78	0xbae0f300	-0.0017162263
79	0x3c3bb148	0.011455841
80	0x3d27ce4f	0.040968236
81	0x3d20fb5e	0.039302222
82	0x3ccfe6e6	0.025378656
83	0x3c493388	0.012280352
84	0xbd02c4ee	-0.031926088
85	0xbd37f6ef	-0.04491323
86	0xbc4ec614	-0.012620468
87	0xbd43f52f	-0.047841247
88	0xbc073f6c	-0.008254867
89	0xbd4b8fdf	-0.049697753
90	0xbbdea1d0	-0.006794192
91	0xbcd41712	-0.025889907
92	0xbcc03db0	-0.023466915
93	0x3cbc9e5e	0.023024734
94	0x3cafc312	0.021455321
95	0xbd31ea6a	-0.043436445
96	0x3d227e57	0.03967127
97	0x3c11ec40	0.008906424
98	0xbcdb7956	-0.026791256
99	0x3cb9827d	0.02264523
100	0xbd351485	-0.044209022
101	0x3cb4aca2	0.022054974
102	0x3d350e6f	0.044203218
103	0xbcfa77bd	-0.030574674
104	0xbc7a9c92	-0.015296118
105	0xbcc6f034	-0.02428446
106	0x3cbe2040	0.023208737
107	0xbc8502a6	-0.016236614
108	0xbc7b1178	-0.015323989
109	0xbce51967	-0.027966214
110	0xbcbcc603	-0.023043638
111	0xbc0f24bc	-0.0087367855
112	0x3b9532f0	0.0045531914
113	0x3d056463	0.03256644
114	0xbce338c7	-0.027737034
115	0xbca964da	-0.020677973
116	0xbcd2603d	-0.025680656
117	0x3cc75a2e	0.024334993
118	0x3c8e3aeb	0.017362079
119	0xbd2324c0	-0.03982997
120	0x3c8f847e	0.017519232
121	0xbb5d47b0	-0.0033764653
122	0x3bd906cf	0.006623126
123	0x3ce954c5	0.028482804
124	0xbd4f8d77	-0.05067202
125	0x3cf0be7c	0.029387705
126	0x3c24c9d4	0.010057885
127	0xbc90fe61	-0.017699422
128	0xbd341971	-0.043969575
129	0x3d0bf1b9	0.03416607
130	0x3b41fb27	0.0029599161
131	0xbd0aa0bd	-0.0338447
132	0xbbbf00e8	-0.0058289655
133	0x3be0e160	0.0068628043
134	0xbbffc278	-0.007805165
135	0xbd3bfbd0	-0.045894444
136	0x3c2ea1a8	0.010658659
137	0xbc740838	-0.014894538
138	0xbcea59b0	-0.02860722
139	0x3c1fc932	0.009752559
140	0x3d1267f6	0.035743676
141	0x3d0cb021	0.034347657
142	0xbc0b4028	-0.008499183
143	0xbcec284a	-0.028827805
144	0x3cf58e92	0.02997521
145	0x3d0594b7	0.03261253
146	0x3d0a2331	0.033724967
147	0x3d1c3ac3	0.038141977
148	0xbcb7d36b	-0.02243968
149	0xbcfaa2b0	-0.030595154
150	0x3cf1870e	0.029483344
151	0xbcfb727a	-0.030694235
152	0xbd334bad	-0.043773342
153	0xbd33c320	-0.043887258
154	0xbcea7750	-0.028621346
155	0xbd37f7f3	-0.044914197
156	0x3d45a066	0.04824867
157	0x3d0a2f0b	0.03373627
158	0x3d09f483	0.03368045
159	0xbc51dce9	-0.012809017
160	0xbbe77bf6	-0.007064338
161	0x3cb9b2f4	0.02266834
162	0x3cfa5ec2	0.030562762
163	0x3cc467d2	0.023975287
164	0x3cb1ba4a	0.021695275
165	0x3c93664a	0.017993111
166	0xbca7c353	-0.02047888
167	0x3b75ec20	0.0037524775
168	0x3c9adc2e	0.018903818
169	0x3c16114c	0.009159397
170	0x3d2be463	0.041965853
171	0x3a422780	0.00074063987
172	0xbc0e4fa0	-0.008685976
173	0x3c69db44	0.014273468
174	0x3ccd43d5	0.025056759
175	0x3cdcf142	0.02697051
176	0xbd218a9e	-0.039438836
177	0xbd404f8a	-0.046950854
178	0x3d28ff79	0.041259263
179	0x3ca08ed6	0.01959936
180	0x3b855930	0.00406947
181	0x3b89e8a8	0.004208643
182	0x3d4a4d59	0.04939017
183	0x3bad3d57	0.0052868533
184	0xbd3c3762	-0.045951255
185	0xbd18f351	-0.03734142
186	0x3cd00f12	0.025397811
187	0xbca3373a	-0.019923795
188	0x3c838472	0.016054366
189	0x3d444a87	0.047922637
190	0x3d2e0fc9	0.042495523
191	0x3d0a86d1	0.033819977
192	0x39904100	0.0002751425
193	0x3d23b56d	0.039967943
194	0x3d0df702	0.034659393
195	0x3d1707f7	0.03687283
196	0xbab626aa	-0.0013897021
197	0xbd15cfdb	-0.03657518
198	0x3c455508	0.012044199
199	0xbcc1e4d7	-0.02366869
200	0x3cd90bc6	0.026494872
201	0xbb1be960	-0.0023790225
202	0x3d06ae5b	0.032881122
203	0xbc85c5ab	-0.016329607
204	0xbd57a31d	-0.05264579
205	0xbd4c576d	-0.049888063
206	0xbd453dff	-0.048154827
207	0x3bd00250	0.006347932
208	0xbc2f59fa	-0.010702604
209	0x3cdfc63e	0.027316209
210	0x3c0ee26c	0.008720975
211	0x3d04ac1a	0.03239069
212	0x3d1f0455	0.03882249
213	0x3d4c9419	0.049945924
214	0xbbd94f5d	-0.0066317753
215	0x3d0693e1	0.032855872
216	0xbd298cdb	-0.041394096
217	0xb953ae00	-0.00020187348
218	0xbc7aeedb	-0.015315737
219	0xb8a99e0e	-8.087988e-05
220	0xba2b1d80	-0.0006527528
221	0xbd023ff0	-0.031799257
222	0x3cdb2fb7	0.02675615
223	0x3d167d0d	0.03674035
224	0x3c4e288c	0.012582909
225	0x3c530ea1	0.012881906
226	0xbc901075	-0.017585972
227	0xbcd6b884	-0.02621103
228	0xbd156917	-0.036477175
229	0xb97e55fb	-0.00024255358
230	0x3d164571	0.03668732
231	0xbceaf263	-0.028680032
232	0xbd062778	-0.032752484
233	0x39e34400	0.00043347478
234	0x3c2f29ab	0.010691087
235	0x3cefbbc0	0.02926433
236	0x3d4fcd68	0.050733
237	0xbbe886aa	-0.0070961313
238	0xbd203281	-0.039110664
239	0x3c60836c	0.013703208
240	0xbc816760	-0.015796363
241	0x3b9d2a6f	0.0047963182
242	0xbd14efb3	-0.036361407
243	0x3d24951b	0.04018126
244	0xbd1a9116	-0.03773602
245	0xbcbc3180	-0.022972822
246	0x3c4dd5f7	0.01256322
247	0x3cd7337a	0.026269663
248	0xbc93bb2c	-0.018033586
249	0x3d2ec40e	0.04266744
250	0xbc1f88e0	-0.009737223
251	0xbcc73640	-0.02431786
252	0x3c8b1a1b	0.016980221
253	0xbcbea1a8	-0.023270443
254	0x3cbd4c72	0.023107741
255	0xbd43e857	-0.047829

l3.weight f4 [6, 300]
0	0xbd0def2e	-0.034651928
1	0xbd53d8d9	-0.051720474
2	0x3d420eae	0.04737728
3	0xbd266bcc	-0.040630147
4	0xbc19de04	-0.009391312
5	0x3c567aa0	0.0130907595
6	0x3d063328	0.03276363
7	0x3ce96a8b	0.028493186
8	0x3c81d5cb	0.015849015
9	0xbb9eecdb	-0.0048500127
10	0x3d087ede	0.033324115
11	0xbbc3d638	-0.0059764646
12	0xbcb60e9e	-0.022223767
13	0xbd2f37d2	-0.042777844
14	0x3c653fcc	0.013992261
15	0x3d4abfb2	0.04949922
16	0xbbbe713e	-0.0058118394
17	0xbcdc3788	-0.026881948
18	0xbd08f8c4	-0.033440366
19	0xbcf8fa3e	-0.030392762
20	0x3bfa689b	0.0076418645
21	0xbd304324	-0.04303278
22	0xbc1f3974	-0.009718288
23	0xbd637797	-0.05553397
24	0x3b15a2eb	0.0022832702
25	0x3d2ae81a	0.041725256
26	0xbd13b8f6	-0.036065064
27	0xbd0e39a4	-0.03472294
28	0x3d09197f	0.03347158
29	0xbc87f942	-0.016598348
30	0xbc39ea64	-0.011347387
31	0xbd4172a3	-0.047228467
32	0x3d3f282c	0.04666917
33	0xbbff2658	-0.0077865534
34	0x3d2273ce	0.03966122
35	0xbd4af65a	-0.049551345
36	0xbd77a70d	-0.060462046
37	0xbc6b92e8	-0.014378287
38	0x3cc9b9b4	0.024624683
39	0x3d2e97e2	0.042625315
40	0xbd5a924c	-0.053362176
41	0x3ad29f60	0.0016069226
42	0x3d37b62a	0.04485146
43	0xbd1434c8	-0.03618315
44	0x3cbf1805	0.023326883
45	0x3d40b657	0.047048893
46	0xbcce8cfc	-0.025213711
47	0x3cfa1e8f	0.03053215
48	0xbd42bb6b	-0.047542017
49	0xbd383f0f	-0.044982012
50	0x3cfbf2f1	0.030755492
51	0x3d32d12c	0.043656513
52	0x3d0d96e0	0.034567714
53	0x3c87ede4	0.016592927
54	0xbb3a2402	-0.002840281
55	0xbb961b25	-0.0045808726
56	0x3cad720f	0.021172551
57	0xbd6bf446	-0.057606004
58	0xbd06fa6e	-0.032953672
59	0x3bb7e15a	0.005611581
60	0x3d22ec44	0.0397761
61	0x3c9fbe80	0.019500017
62	0xbcfffce4	-0.031248517
63	0xbd789623	-0.060690057
64	0xbc7646fb	-0.0150315715
65	0x3d3c4414	0.04596336
66	0xbd0167e7	-0.03159323
67	0x3d43e72b	0.04782788
68	0x3b8a617e	0.0042230478
69	0x3c5649de	0.013079135
70	0xbd47d7e8	-0.04878989
71	0xbc9d2f73	-0.019187665
72	0x3cc2ea4c	0.023793362
73	0x3d1642e2	0.03668488
74	0x3d47ba3e	0.0487616
75	0x3b756b60	0.0037448034
76	0x3d5c15fa	0.053731896
77	0x3d431768	0.047629744
78	0xbd1ef1ad	-0.0388047
79	0xbcf00373	-0.02929852
80	0x3d5a799a	0.053338625
81	0xbd6b75da	-0.05748544
82	0x3d61ef0e	0.05515962
83	0x3be9ff10	0.0071410015
84	0xbc628d25	-0.013827597
85	0xbcb07d56	-0.02154414
86	0x3c2e5da0	0.010642439
87	0xbd3e7908	-0.046502143
88	0xbcc3d380	-0.023904562
89	0xbcaaff84	-0.020873792
90	0x3cc79cb0	0.024366707
91	0xbc84a8ac	-0.01619371
92	0xbd07b066	-0.03312721
93	0x3c5e3030	0.0135612935
94	0xbc4d3fd0	-0.012527421
95	0x3c529c18	0.012854598
96	0xbcd4ebf8	-0.025991425
97	0x39246700	0.0001567863
98	0xbca23145	-0.019798884
99	0x3d3395b7	0.04384395
100	0x3c8b76b4	0.017024375
101	0xbc192bd8	-0.009348832
102	0xbb106480	-0.002203256
103	0xbc276e23	-0.01021913
104	0xbc9eb931	-0.019375416
105	0xbd372196	-0.044709764
106	0x3d3545db	0.044256072
107	0xbcbf577e	-0.02335715
108	0xbd3c4dba	-0.045972563
109	0x3ce2d084	0.027687319
110	0x3c234a10	0.009966388
111	0x3ca71f84	0.02040077
112	0xbd2eecfc	-0.042706475
113	0xbc4aeebf	-0.012386023
114	0xbd07faf0	-0.033198297
115	0x3ca2b038	0.019859418
116	0x3c399e40	0.011329234
117	0x3d2a681a	0.041603185
118	0x3bc7e64e	0.0061004525
119	0xbbd00f90	-0.0063495114
120	0x3d5a7756	0.053336464
121	0xbc882c94	-0.016622819
122	0x3d5e2426	0.054233693
123	0xbbd9ad6b	-0.0066429875
124	0x3d5bf943	0.05370451
125	0x3c9eea3a	0.019398797
126	0x3d4ae7ac	0.049537346
127	0xbd155d88	-0.03646615
128	0x3c8bcf1c	0.01706653
129	0x3b66cb30	0.0035216324
130	0xbcb8bcbc	-0.022550933
131	0xbd6d567b	-0.057943802
132	0xbc189f50	-0.009315327
133	0xbc870d28	-0.016485766
134	0xbc555f7a	-0.013023252
135	0xbceca6bb	-0.028888097
136	0xbcd8ef74	-0.026481368
137	0x3c6a5ba8	0.014304079
138	0xbd00ea5c	-0.031473503
139	0x3c80345f	0.015649972
140	0x3c5cec09	0.01348401
141	0xbd4c91c1	-0.04994369
142	0xbd568626	-0.052374028
143	0x3d5b28b6	0.05350562
144	0x3c4770d0	0.012172893
145	0xbd7517a4	-0.059837
146	0xbc5f785c	-0.013639536
147	0xbcfc0cb8	-0.030767784
148	0x3b19be37	0.0023459324
149	0xbb3e0f10	-0.0029000677
150	0xbd3f660c	-0.04672818
151	0x3ca1d75c	0.019756012
152	0xbd305423	-0.04304899
153	0xbd451540	-0.04811597
154	0x3d101910	0.03518015
155	0x3d2fe2e0	0.042940974
156	0x3d655794	0.055991724
157	0xbd0b1775	-0.033957917
158	0x3d39b97e	0.045342915
159	0x3cae88a9	0.021305399
160	0xbc6cc365	-0.014450883
161	0xbcb45114	-0.022011317
162	0x3c495680	0.01228869
163	0x3d0f648a	0.03500799
164	0xbc583484	-0.013196114
165	0x3d07c238	0.033144206
166	0x3d5e9936	0.054345332
167	0x3c6ff158	0.014644943
168	0x3c2abef8	0.010421507
169	0x3d68fede	0.056883685
170	0x3d568496	0.052372538
171	0x3d1d5ab4	0.03841658
172	0x3d5ad8ba	0.053429343
173	0xbd018dc4	-0.03162934
174	0xbd5c77de	-0.05382525
175	0xbd4e056e	-0.050298147
176	0x39b74d00	0.0003496185
177	0xbb251a82	-0.0025192802
178	0x3d02133c	0.031756625
179	0x3d32b222	0.043626912
180	0xbc96c56c	-0.018404685
181	0xbd53c205	-0.051698703
182	0xbc879afa	-0.01655339
183	0xbc214655	-0.009843429
184	0x3d63f3de	0.05565249
185	0xbc86c035	-0.016449073
186	0x3af3ee40	0.0018610433
187	0x3d36580b	0.044517558
188	0xbc98b520	-0.018641055
189	0x3d025b08	0.031825095
190	0xbd11d7d6	-0.035606228
191	0x3cdf510a	0.027260322
192	0xbb02a9b0	-0.0019937567
193	0xbd5e7483	-0.054310333
194	0xbd211381	-0.03932524
195	0x3d48e8a9	0.049050007
196	0xbac3b98f	-0.001493262
197	0xb9f68d29	-0.0004702595
198	0x3d621afc	0.055201516
199	0x3d6a976c	0.057273313
200	0xbcd834c0	-0.02639234
201	0xbd50af8c	-0.050948665
202	0x3c1e78a8	0.009672321
203	0xbd716849	-0.058937345
204	0xbcba5539	-0.022745715
205	0xbcf26b05	-0.029592047
206	0x3d1c9f12	0.03823764
207	0xbcd2dc81	-0.02573991
208	0xbbaab153	-0.005209127
209	0xbd30627a	-0.043062665
210	0xbd275b8a	-0.040858783
211	0x3d53be82	0.051695354
212	0x3d5ae2e8	0.05343905
213	0x3c1deb08	0.009638555
214	0x3d27c1cb	0.0409563
215	0x3c1c58b8	0.009542637
216	0xbc408108	-0.011749513
217	0x3cfab8b4	0.030605651
218	0x3b4a11ff	0.003083348
219	0x3cc3b78a	0.02389123
220	0xbbabe638	-0.00524595
221	0x3d01aa8f	0.031656798
222	0xbd7727b2	-0.06034059
223	0x3c7fdda0	0.015616804
224	0xbd300676	-0.04297491
225	0x3d0ecf02	0.034865387
226	0xbd48de79	-0.04904029
227	0x3d5e94bc	0.054341063
228	0xbcf9a8b6	-0.030475955
229	0x3ba048d1	0.004891493
230	0xbc8a9d5c	-0.016920738
231	0x3acb4ceb	0.0015510594
232	0xbcaa6efa	-0.02080487
233	0x3c23d288	0.009998925
234	0x3b2e640b	0.0026609923
235	0x3cba7bdd	0.02276414
236	0x3d3913a9	0.045184765
237	0x3d032946	0.032021783
238	0x3ac47a40	0.0014990047
239	0x3d56879d	0.052375425
240	0xbd3fc448	-0.046818048
241	0xbd064514	-0.03278072
242	0xbc2d9b18	-0.010596059
243	0x3d0f35dc	0.034963474
244	0xbd791d5d	-0.06081902
245	0xbd1797f4	-0.03701015
246	0xbd640332	-0.05566711
247	0xbc9102f3	-0.017701602
248	0x3cb0f6b8	0.02160202
249	0xbcb5d7d7	-0.022197647
250	0x3d4997f4	0.04921718
251	0x3d10b0f0	0.03532499
252	0x3c27bdf1	0.010238157
253	0xbcf9ff83	-0.030517345
254	0x3caceeec	0.02111002
255	0xbc930658	-0.01794736

l3.bias f4 [6]
0	0x3d3bee85	0.045881767
1	0xbd229a0c	-0.03969769
2	0x3d4578a1	0.048210744
3	0x3cd729aa	0.026264984
4	0x3d00f580	0.031484127
5	0xbccdb814	-0.02511219
