integration/controllers/sim2Actual/expDDPG.pyWebots/critic.pth (torch, 500247 bytes, 5 tensors)

l1.weight f4 [400, 9]
0	0x3e983dd8	0.29734683
1	0x3e039582	0.12850001
2	0x3e824c4e	0.2544884
3	0x3cbe5e0b	0.023238203
4	0xbe894068	-0.2680695
5	0xbcbfe616	-0.023425143
6	0xbe0fe3b3	-0.14051704
7	0x3e545433	0.20735244
8	0x3e4d2fa1	0.200377
9	0xbdceaaa0	-0.10091138
10	0xbe8ee2f2	-0.2790752
11	0x3d37a998	0.04483947
12	0x3d381740	0.044944048
13	0xbd5f4f60	-0.054519057
14	0xbe0ab290	-0.13544679
15	0xbe8e1028	-0.277467
16	0x3d5111b8	0.05104229
17	0x3e6da9aa	0.23209253
18	0x3e12904e	0.1431286
19	0xbe3a0b2b	-0.18168323
20	0xbbf634c0	-0.0075136125
21	0x3e295a3e	0.16538331
22	0x3e800381	0.25002673
23	0xbe6c4cce	-0.23076174
24	0x3d969d7c	0.073542565
25	0x3ea47cb5	0.32126394
26	0xbc801400	-0.015634537
27	0xbe71d83b	-0.23617642
28	0xbd609dc0	-0.054837942
29	0x3b79f180	0.003813833
30	0xbea38a4e	-0.31941456
31	0xbe1ebea6	-0.15502414
32	0xbe91522e	-0.2838301
33	0xbd610768	-0.054938704
34	0xbe962a92	-0.29329354
35	0x3e1a12e0	0.15046263
36	0x3e9af5bf	0.30265614
37	0xbd998edc	-0.074979514
38	0xbe9a7262	-0.30165392
39	0xbe578a13	-0.21048765
40	0xbc98bbb0	-0.018644184
41	0xbe573e28	-0.21019804
42	0xbe7eae2b	-0.24871127
43	0x3bb1e540	0.00542894
44	0xbe1c582b	-0.15268008
45	0xbcb6b376	-0.02230237
46	0xbda3d51d	-0.079996325
47	0x3db46863	0.08808973
48	0x3e5c2efe	0.21502301
49	0xbe25c561	-0.16188575
50	0x3e05d3eb	0.13069122
51	0xbea3afaa	-0.3196996
52	0xbdc419b0	-0.09575212
53	0x3e8bbefd	0.2729415
54	0x3e784ce6	0.24248084
55	0xbd98f004	-0.07467654
56	0xbea217d3	-0.316588
57	0x3e73d652	0.23812225
58	0xbb3c6e80	-0.0028752387
59	0x3deb5cdc	0.11492321
60	0x3d4be958	0.04978308
61	0xbe85f3e7	-0.26162645
62	0xbd86203c	-0.06549117
63	0x3e91ed0d	0.28501168
64	0xbe74feaa	-0.23925272
65	0xbd0a1760	-0.0337137
66	0xbd2bd959	-0.041955326
67	0xbe9a0f7e	-0.30089945
68	0xbd4a6ac8	-0.04941824
69	0xbe9db007	-0.3079836
70	0xbdc7b1eb	-0.09750732
71	0xbea9c01c	-0.3315438
72	0x3e0c0730	0.13674617
73	0x3e827db0	0.25486517
74	0xbe10b262	-0.14130548
75	0xbdc87826	-0.097885415
76	0x3d17ca58	0.037058204
77	0x3ea19cf7	0.31565067
78	0xbe564c5a	-0.20927563
79	0x3ebe8b01	0.37215427
80	0xbe711bf3	-0.23545818
81	0x3d9b950b	0.07596787
82	0xbe8e1e4a	-0.27757484
83	0xbe2b9998	-0.1675781
84	0x3e9eb342	0.30996138
85	0xbe6c62cc	-0.23084563
86	0xbdbb3011	-0.09140027
87	0x3e8d01cf	0.27540442
88	0x3eb9a544	0.362589
89	0x3d90ebe1	0.0707624
90	0x3e39d1c5	0.18146427
91	0x3dcd88aa	0.10035832
92	0x3e8b490a	0.27204162
93	0x3ea6a5c8	0.32548356
94	0x3e09e597	0.13466488
95	0xbdadf575	-0.08494083
96	0xbd24b1f7	-0.040208783
97	0x3e7bcda9	0.24590172
98	0xbd310c8f	-0.043224867
99	0x3d9c0aa7	0.07619219
100	0xbdd5a725	-0.10432271
101	0xbc04d2e4	-0.008106921
102	0x3e79793e	0.24362656
103	0xbe8eb245	-0.27870384
104	0xbe297b40	-0.16550922
105	0xbe001f19	-0.12511863
106	0xbe582829	-0.2110907
107	0xbe524480	-0.20533943
108	0x3e4390ca	0.19098201
109	0x3dafaf14	0.085783154
110	0xbe4282f6	-0.1899527
111	0xbe79f2ce	-0.24409029
112	0x3d70f9e8	0.05883208
113	0xbd140548	-0.03613785
114	0x3e95f83f	0.2929096
115	0x3ea7691f	0.3269739
116	0x3d30fea8	0.04321161
117	0x3e821f41	0.2541447
118	0x3dfadf10	0.12249577
119	0xbea30380	-0.31838608
120	0x3e8b0101	0.27149203
121	0x3e7fadc2	0.24968627
122	0xbd8124cc	-0.063058466
123	0xbe813a23	-0.25239667
124	0x3ddf6dcc	0.10909614
125	0xbd6843a8	-0.056705147
126	0xbd8b467f	-0.068005554
127	0x3d26d83f	0.040733572
128	0xbe89a57d	-0.2688407
129	0x3dc3ce51	0.09560836
130	0x3d4a85ee	0.04944413
131	0x3e92efde	0.2869863
132	0xbceaeb77	-0.028676732
133	0x3e946ef7	0.2899091
134	0xbe5f5629	-0.21810211
135	0x3e8a3074	0.26990092
136	0xbe19e8ca	-0.15030208
137	0xba069230	-0.0005133478
138	0x3e981ec8	0.29710984
139	0xbe914853	-0.28375491
140	0x3d811e5e	0.0630462
141	0xbea952e7	-0.33071062
142	0x3db074f4	0.08616057
143	0x3b791681	0.0038007798
144	0xbd4c8418	-0.049930662
145	0xbc2124a0	-0.009835392
146	0x3e932455	0.28738657
147	0xbd463828	-0.0483934
148	0x3e863253	0.2621027
149	0xbdeff7ac	-0.117171615
150	0xbe8ebf02	-0.27880102
151	0xbd24b480	-0.0402112
152	0x3e9cc57f	0.30619428
153	0xbdef49a0	-0.11683965
154	0x3dabbe10	0.08385861
155	0xbe5acaa8	-0.2136637
156	0xbe85959e	-0.2609071
157	0xbda3b360	-0.079931974
158	0xbe66d448	-0.22541916
159	0x3ddb755c	0.10715744
160	0x3eaa2cd3	0.33237323
161	0xbe8ac934	-0.2710663
162	0xbe7c21a9	-0.24622215
163	0xbe52c9cc	-0.20584792
164	0x3e3f48ee	0.18680164
165	0x3eb2f81d	0.3495492
166	0xbdd0499e	-0.10170291
167	0xbe7b6a99	-0.24552383
168	0xbd21c298	-0.03949222
169	0xbce4a498	-0.027910516
170	0xbb7beb99	-0.0038439988
171	0xbdecb4f0	-0.115579486
172	0xbd4f43e0	-0.05060184
173	0x3e556bde	0.2084193
174	0xbd6015e0	-0.05470836
175	0x3e898649	0.26860264
176	0xbdd6b226	-0.10483198
177	0xbe2ab21e	-0.16669509
178	0x3e787f92	0.24267414
179	0x3ea0183d	0.31268492
180	0xbdb1c401	-0.08679963
181	0xbe7bb440	-0.24580479
182	0x3dfca27e	0.123356804
183	0x3e6e14b6	0.23250088
184	0xbe1b38c8	-0.15158379
185	0x3ea91f79	0.33031824
186	0xbe857504	-0.26065838
187	0xbe4a134c	-0.19733924
188	0x3e437777	0.19088541
189	0xbe85c283	-0.26124963
190	0x3d4c81b8	0.049928397
191	0xbe719338	-0.23591316
192	0x3ea3a035	0.31958166
193	0x3ddd64bc	0.10810229
194	0xbd611298	-0.054949373
195	0x3ea14c87	0.31503698
196	0x3d583138	0.052781314
197	0xba591800	-0.00082814693
198	0x3e1f487d	0.15554996
199	0x3e6b3177	0.22968088
200	0x3e167dd5	0.14696439
201	0x3e93e199	0.28883055
202	0xbd158010	-0.036499083
203	0x3e99acac	0.3001455
204	0x3e0df3d2	0.13862541
205	0x3ebc1f16	0.36742467
206	0xbe71e27d	-0.23621555
207	0xbe49de10	-0.19713616
208	0xbea0b223	-0.31385908
209	0x3bf0bc00	0.00734663
210	0xbdf7bf36	-0.120970175
211	0x3e858bb3	0.26083145
212	0xbe3be34b	-0.18348424
213	0xbddcb8b6	-0.10777418
214	0x3e4d739e	0.20063636
215	0xbd8b401c	-0.06799337
216	0x3c7f5a6b	0.015585522
217	0x3dec73d8	0.11545533
218	0x3e451420	0.19245958
219	0x3eab2a23	0.33430585
220	0x3c01e7d0	0.007928804
221	0x3e57dbe1	0.21079971
222	0xbeaaf367	-0.33388826
223	0x3ca01b7c	0.019544356
224	0x3e4e5297	0.20148693
225	0xbd981045	-0.07424978
226	0x3e79aa3a	0.24381343
227	0x3de2cb2e	0.1107391
228	0x3eb488d5	0.35260645
229	0x3e7068f1	0.23477532
230	0x3e921314	0.2853018
231	0x3d460a31	0.048349563
232	0xbe1fb840	-0.1559763
233	0xbe43ef98	-0.19134367
234	0x3e2fa1e1	0.17151596
235	0x3d66cff2	0.056350656
236	0x3da5c758	0.080946624
237	0x3d5d6159	0.054047916
238	0x3e5823ac	0.21107358
239	0x3e85f5f4	0.2616421
240	0xbd001fb0	-0.03128022
241	0x3e447212	0.1918414
242	0xbe702e0a	-0.23455063
243	0x3d989eb0	0.07452142
244	0x3e7c5d56	0.2464498
245	0x3ea8aea3	0.32945737
246	0x3d629411	0.05531699
247	0x3df43942	0.119249836
248	0xbe55e045	-0.20886333
249	0x3e0226ed	0.12710162
250	0x3e4f3aaa	0.20237222
251	0xbe3e32fb	-0.18574135
252	0xbdcf3f74	-0.101195246
253	0x3e2ca8c8	0.1686126
254	0x3da116b3	0.07865658
255	0x3ea97814	0.33099425

l1.bias f4 [400]
0	0x3ca6789a	0.02032118
1	0x3d49eb98	0.049296945
2	0xbda965f0	-0.08271396
3	0x3df2b0d0	0.118501306
4	0xbe29e668	-0.165918
5	0x3ea32a91	0.31868413
6	0xbe2e2a13	-0.17008238
7	0x3eb425dd	0.35185137
8	0x3b7649fa	0.0037580715
9	0x3e81c9ff	0.25349423
10	0x3dade52e	0.08490978
11	0x3e5049bd	0.20340629
12	0x3c9d1b00	0.019177914
13	0xbe0730a0	-0.13202143
14	0x3d991e29	0.07476456
15	0x3e5210e7	0.2051426
16	0xbd9d11b4	-0.07669392
17	0xbe5ab4be	-0.2135801
18	0x3b16b343	0.0022995032
19	0xbdc1335c	-0.09433624
20	0x3dc905d1	0.098155625
21	0x3e0462e8	0.12928355
22	0xbdc14fc1	-0.0943904
23	0x3da927d0	0.08259547
24	0x3e005eac	0.12536114
25	0x3c26c6ba	0.010179216
26	0xbe0ba98c	-0.13638896
27	0x3c570a9d	0.013125089
28	0x3e912155	0.28345743
29	0x3d0adff8	0.033905
30	0xbe7b741b	-0.2455601
31	0x3e6fb846	0.23410138
32	0xbe88643e	-0.2663898
33	0x3e165273	0.1467989
34	0x3e3f48da	0.18680134
35	0x3e5d51ff	0.2161331
36	0xbdd13c2c	-0.10216555
37	0xbe30732b	-0.17231433
38	0xbc7e4c60	-0.015521139
39	0xbe948d8c	-0.29014242
40	0xbe8619ab	-0.26191458
41	0x3d77c2aa	0.06048838
42	0xbe94210c	-0.28931463
43	0x3df1f41b	0.118141375
44	0xbea98956	-0.33112592
45	0xbe9fe6c3	-0.31230745
46	0xbe3e95ce	-0.18611833
47	0x3eae46b5	0.3403832
48	0x3e593aa2	0.21213773
49	0xbe393780	-0.18087578
50	0xbdce5a30	-0.10075796
51	0xbe8ba673	-0.27275428
52	0xbde5b196	-0.112155125
53	0xbdc573e2	-0.096412435
54	0x3e880fba	0.26574498
55	0x3eb3bd42	0.3510533
56	0x3c21668e	0.009851111
57	0x3db1b40c	0.08676919
58	0xbe8829a7	-0.26594278
59	0x3e7e9d22	0.24864629
60	0x3ea19b5d	0.31563845
61	0xbe8cec90	-0.27524233
62	0xbd0ae8f4	-0.033913568
63	0x3e66cfd6	0.2254022
64	0x3d45f8a7	0.048332836
65	0xbd494718	-0.049140066
66	0x3e8e43dd	0.2778615
67	0x3e9dcf6a	0.30822307
68	0xbe870606	-0.26371783
69	0x3eaa8e35	0.3331162
70	0xbe087190	-0.1332457
71	0x3e16fe71	0.14745499
72	0xbe70bd10	-0.23509622
73	0xbdee9856	-0.116501495
74	0x3e92cf42	0.2867375
75	0xbc8f5d1a	-0.017500449
76	0xbe935a87	-0.28780004
77	0x3dae4d9c	0.085108966
78	0xbe77cb48	-0.2419864
79	0x3d0ebb00	0.034846306
80	0xbea8762b	-0.32902655
81	0xbe11d8be	-0.14242837
82	0xbe99fd2b	-0.30075964
83	0x3d43bf5b	0.047789913
84	0xbc600556	-0.013673147
85	0x3eabb4ef	0.3353648
86	0xbe86a0ea	-0.26294643
87	0xbdcd7ed6	-0.10033958
88	0x3e9e1596	0.30875844
89	0x3d0f389c	0.034966096
90	0x3e5e6654	0.21718723
91	0xbe3c58c0	-0.1839323
92	0x3ebcdbcb	0.3688644
93	0xbb89f340	-0.004209906
94	0xbe80467c	-0.25053775
95	0xbd70b228	-0.058763653
96	0xbdaed8c6	-0.0853744
97	0x3dc024f4	0.09382048
98	0xbda9dd74	-0.08294192
99	0x3eb73ab2	0.35786968
100	0xbe57d2df	-0.21076535
101	0x3e839d75	0.25706068
102	0x3b3d5800	0.0028891563
103	0x3eafa62a	0.3430646
104	0x3ccc3b5a	0.024930645
105	0x3e1486fb	0.14504616
106	0xbd54be40	-0.05193925
107	0x3dffd6d0	0.12492144
108	0x3e5e1202	0.21686557
109	0x3e82fa04	0.25581372
110	0x3da080fb	0.07837101
111	0x3e55e592	0.20888355
112	0x3d0fa4e8	0.035069376
113	0x3de0037c	0.109381646
114	0x397e1800	0.00024232268
115	0x3e2fce2a	0.17168489
116	0xbe0069db	-0.1254038
117	0x3e10c96e	0.1413934
118	0x3e8efed3	0.2792879
119	0xbdf90250	-0.12158644
120	0x3eaf578c	0.3424648
121	0x3d61ffad	0.055175472
122	0xbe2ab51e	-0.16670653
123	0x3e99549a	0.29947358
124	0xbdd09381	-0.10184384
125	0xbe9df777	-0.30852863
126	0x3e402022	0.18762258
127	0x3dfec790	0.12440407
128	0x3ead2f90	0.3382535
129	0x3eaa8f28	0.33312345
130	0x3d35d092	0.04438836
131	0xbe14e5e6	-0.14540824
132	0xbe0f9d93	-0.14024954
133	0xbe8f1fce	-0.27953953
134	0x3e988d7b	0.2979544
135	0xbe9a6073	-0.3015171
136	0x3e726aaf	0.23673509
137	0x3d5e5320	0.054278493
138	0xbd88bdac	-0.06676802
139	0xbe8053ef	-0.25064036
140	0x3e6407aa	0.22268549
141	0xbe09f803	-0.13473515
142	0xbe5bfbe7	-0.21482812
143	0x3d5b7a60	0.053583503
144	0xbda89454	-0.08231416
145	0x3e73002b	0.23730533
146	0xbe005e58	-0.1253599
147	0x3d96f49e	0.07370876
148	0x3db17666	0.08665161
149	0xbe93ceac	-0.28868616
150	0xbe9cd0ee	-0.3062815
151	0xbd665e36	-0.05624219
152	0xbe809104	-0.25110638
153	0x3ea51d1e	0.32248777
154	0xbdca74d6	-0.09885566
155	0x3d9bffec	0.076171726
156	0xbe9281d7	-0.28614685
157	0xbbed0d65	-0.007234263
158	0x3c5483a0	0.012970835
159	0xbe276c5b	-0.16349928
160	0x3dc1c040	0.09460497
161	0xbd85199c	-0.06499025
162	0x3e8d1a65	0.275592
163	0xbe0d289b	-0.13785021
164	0xbde49e8a	-0.111630514
165	0x3e4f83e6	0.20265159
166	0x3e7b19d1	0.24521567
167	0xbdfa3950	-0.12217963
168	0x3e1ba7f0	0.15200782
169	0xbe1ca463	-0.15297084
170	0xbe14cc03	-0.1453095
171	0x3e004766	0.12527236
172	0xbdadd0b5	-0.08487073
173	0xbe80fa73	-0.25191078
174	0xbe0df206	-0.13861856
175	0x3e9992b5	0.2999474
176	0xbbd465c2	-0.006481857
177	0x3e8ee8ad	0.27911893
178	0x3ea8a2e7	0.32936785
179	0x3e539b0e	0.20664617
180	0xbdb88c6c	-0.09011158
181	0xbe83946b	-0.2569917
182	0x3ce56eda	0.02800696
183	0x3d294198	0.04132232
184	0x3c0f6ceb	0.008753995
185	0x3e8d3e74	0.2758671
186	0x3e7f3e52	0.24926117
187	0x3e8ce74e	0.2752022
188	0x3d8c8990	0.068621755
189	0xbd16c5ea	-0.03680984
190	0xbda29e04	-0.07940295
191	0xbd8a85ec	-0.06763825
192	0xbd74a40a	-0.059726752
193	0xbdf91084	-0.12161353
194	0xbd918d54	-0.07107034
195	0xbdcb6976	-0.099322245
196	0x3ce992b0	0.028512329
197	0xbcc5aeb0	-0.024131149
198	0xbdafd13c	-0.0858483
199	0xbe94c956	-0.29059857
200	0xbd1a0d23	-0.037610184
201	0xbe8db488	-0.27676797
202	0x3e15a496	0.14613566
203	0x3e016186	0.12634858
204	0x3e705fa3	0.23473983
205	0x3dd20a3c	0.10255858
206	0xbe68c819	-0.22732581
207	0x3ea1b001	0.31579593
208	0xbe777ca3	-0.24168639
209	0xbe96f5e6	-0.2948448
210	0xbcdd7a18	-0.027035758
211	0x3e00e7f2	0.1258848
212	0xbd5f06ab	-0.05444972
213	0xbda610a7	-0.08108645
214	0x3e9907fe	0.2988891
215	0xbe6cd2c6	-0.23127279
216	0xbe8a62e4	-0.27028573
217	0x3e3f33f4	0.18672162
218	0x3eae2df6	0.3401944
219	0xbbd9ad40	-0.0066429675
220	0x3da16400	0.078804016
221	0xbd80e4f5	-0.0629367
222	0xbb6b12bb	-0.0035869319
223	0xbe6804a4	-0.2265802
224	0x3dbefdf6	0.09325783
225	0x3e994dfa	0.29942304
226	0xbe5a9aae	-0.21348068
227	0x3ea41c84	0.32053006
228	0x3e0451e8	0.1292187
229	0xbdeb7106	-0.11496167
230	0xbe2e818b	-0.17041604
231	0xbe37f73c	-0.17965406
232	0x3e303a8e	0.17209837
233	0x3dccfb3a	0.10008855
234	0x3e43ae1a	0.19109383
235	0x3e960c9d	0.29306498
236	0x3e9f8406	0.31155413
237	0xbe412786	-0.18862733
238	0xbe300e32	-0.17192915
239	0x3d75ee2a	0.060041584
240	0x3dfe9904	0.12431529
241	0x3de3b318	0.11118144
242	0xbe16fa83	-0.14744
243	0xbe46a1a3	-0.19397597
244	0x3e8d6293	0.2761427
245	0x3ea48e30	0.3213973
246	0x3d9b18a4	0.07573059
247	0xbe1a8983	-0.15091519
248	0xbe9c5c7a	-0.30539304
249	0xbd23483f	-0.03986382
250	0x3e09d31b	0.13459437
251	0x3e1f189a	0.15536729
252	0x3db5189d	0.08842585
253	0x3b5af200	0.0033408403
254	0xbe3227fc	-0.17398065
255	0xbe6389c0	-0.22220516

l2.weight f4 [300, 400]
0	0x3d0b6191	0.034028593
1	0xbceec02a	-0.029144365
2	0x3d19e0f1	0.037568036
3	0xbd3e3d28	-0.046445042
4	0x3c7ec424	0.015549693
5	0xbd2475c0	-0.040151358
6	0x3d05f213	0.032701563
7	0xbd4880ef	-0.048951086
8	0xbd25095e	-0.040292136
9	0x3d3a13e1	0.045429114
10	0x3bdcda70	0.006739907
11	0xbc82d10c	-0.015968822
12	0xbc9b9f20	-0.018996775
13	0x3c45c9f8	0.012072079
14	0xbcf8920d	-0.03034308
15	0xbcfa80f3	-0.030579066
16	0xbbb3a530	-0.0054823384
17	0x3ba4d418	0.0050301664
18	0x3ce67dce	0.02813616
19	0xbbf40110	-0.0074464157
20	0x3d34096d	0.0439543
21	0xbd0b6116	-0.034028135
22	0xbc511628	-0.01276163
23	0x3d2d30a1	0.042282704
24	0x3d0080d5	0.031372864
25	0xbcec168a	-0.028819341
26	0xbd14d6ca	-0.03633765
27	0xbd2d0c18	-0.04224786
28	0x3c743724	0.014905725
29	0xbd04e68d	-0.032446433
30	0xbd1cf1e0	-0.038316607
31	0x3bcdcfe8	0.006280888
32	0x3d262ec1	0.04057193
33	0x3c55ed64	0.013057087
34	0xbd3d318b	-0.046189826
35	0xbd3ba082	-0.04580737
36	0x3c8ea2e6	0.01741166
37	0xbd084b4d	-0.033274937
38	0x3d0b0d65	0.03394832
39	0x3b80e5c0	0.0039336383
40	0xbb65dbb0	-0.003507357
41	0x3cdb0f1e	0.026740607
42	0x3c94dfda	0.018173147
43	0x3d2d43ef	0.042301115
44	0xbd2a0836	-0.041511737
45	0xbd2af7fe	-0.04174041
46	0xbcae0b37	-0.021245582
47	0x3bee1c18	0.0072665326
48	0x3d336739	0.043799613
49	0x3c8ebb32	0.017423246
50	0x3b9980d0	0.004684545
51	0x3bcb2218	0.0061991327
52	0x3d0ab363	0.033862483
53	0x3d355dad	0.04427879
54	0x3c9ba74e	0.019000676
55	0xbcab8af0	-0.020940274
56	0x3c7c07cc	0.015382718
57	0x3c340268	0.010986902
58	0x3cd650f2	0.026161645
59	0x3d43d631	0.04781169
60	0xbd3537c3	-0.04424263
61	0x3c59bb04	0.013289217
62	0x3aea1e60	0.0017861836
63	0xbcb7c733	-0.022433853
64	0xbd2b7dd2	-0.04186804
65	0x3d0be421	0.034153108
66	0xbd290063	-0.041260134
67	0xbc747bd4	-0.014922101
68	0x3d34712f	0.044053253
69	0x3b71ab80	0.0036875904
70	0x3b3daa00	0.002894044
71	0xb98d1c00	-0.00026914477
72	0x3cd4c696	0.0259736
73	0xbd153a4b	-0.036432546
74	0xbd18d69a	-0.037314035
75	0x3cc6d222	0.024270121
76	0xbd086bf8	-0.033306092
77	0xbcc261ca	-0.02372827
78	0x3c88c26a	0.016694266
79	0x3c229ba8	0.009924807
80	0x3d4597c3	0.048240434
81	0x3d1b061d	0.037847627
82	0x3d1d69c5	0.038430948
83	0x3ab2b0a0	0.0013632961
84	0x3d0765ff	0.033056255
85	0x3d4c52c1	0.049883608
86	0xbcd902ea	-0.026490647
87	0xbd31f38a	-0.043445148
88	0xbcab0343	-0.020875579
89	0xbd138582	-0.036015995
90	0x3c806002	0.01567078
91	0xbd3bd0db	-0.045853477
92	0x3b724860	0.0036969408
93	0x3cd29c22	0.025709216
94	0x3ce3d6c2	0.027812365
95	0x3cecb666	0.028895568
96	0x3cd76e12	0.026297603
97	0x3cf20586	0.02954365
98	0xbbd16b30	-0.0063909516
99	0x3cc22c62	0.023702804
100	0x3d0115f7	0.031515088
101	0x3d04f07d	0.03245591
102	0x3d2ef8e1	0.04271782
103	0x3cd0b012	0.025474582
104	0x3d3b2847	0.04569271
105	0xbd11ef03	-0.03562833
106	0xbce7f3a7	-0.028314425
107	0xbd15c7ae	-0.036567383
108	0xbd281e65	-0.04104461
109	0x3d1ffe61	0.039060954
110	0x3d47c63f	0.048773047
111	0x3be40cd8	0.006959539
112	0xbc6b1700	-0.014348745
113	0x3d3b7c37	0.045772757
114	0x3d3339c9	0.04375628
115	0xbce4acbd	-0.0279144
116	0x3cbfe112	0.023422752
117	0x3c353994	0.011061091
118	0x3cf37956	0.029720943
119	0xbd0b3e46	-0.033994935
120	0x3c6f2af4	0.014597643
121	0xbd1b23f0	-0.03787607
122	0x3c7ceea4	0.015437756
123	0xbcc930ba	-0.024559367
124	0x3c657b3c	0.014006432
125	0x3c942cc6	0.018087756
126	0x3c6a8094	0.014312882
127	0xbd3ae2af	-0.04562634
128	0xbd3edce5	-0.04659738
129	0xbcee432a	-0.02908476
130	0x3ce676ee	0.028132882
131	0xbceee9a0	-0.029164135
132	0xbd3b56fb	-0.045737248
133	0x3cbeb8c2	0.023281459
134	0xbd4329cf	-0.047647294
135	0x3c5bd2a4	0.01341692
136	0x3b933d68	0.004493404
137	0x3d2e725d	0.042589534
138	0xbc4577ec	-0.012052517
139	0x3d278a01	0.040903095
140	0x3cbd2526	0.023089003
141	0xbd387f02	-0.045043
142	0xbd2ecbff	-0.042675015
143	0x3c8cb24a	0.017174859
144	0xbbfa8318	-0.007645022
145	0xbc5d8048	-0.013519354
146	0x3c5753cc	0.013142537
147	0x3cb23102	0.021751884
148	0xbd37ef80	-0.04490614
149	0xbc4916f8	-0.012273543
150	0x3d31c16d	0.043397356
151	0x3c129928	0.008947648
152	0xbd1fc8bd	-0.0390098
153	0x3d322209	0.04348949
154	0xbc2e50c0	-0.0106393695
155	0xbd3406d0	-0.04395181
156	0x3ccbe2ee	0.024888482
157	0xbd03e9be	-0.032205336
158	0xbcc5f110	-0.0241628
159	0x3a886700	0.0010406673
160	0x3d30c38d	0.04315524
161	0x3c898b9e	0.016790207
162	0x3d2c9245	0.04213168
163	0x3bb5cb90	0.005547948
164	0x3c8ec3aa	0.017427284
165	0x3c2e6500	0.010644197
166	0xbd08173d	-0.033225287
167	0x3d359d21	0.044339303
168	0x3c1931f4	0.009350289
169	0x3c5aa1fc	0.013344284
170	0x3cb4c662	0.022067253
171	0x3cf70cea	0.030157525
172	0x3cb29706	0.02180053
173	0x3d0536db	0.032523017
174	0x3c67c0a4	0.01414505
175	0x3ca71b52	0.02039877
176	0x3cb57c4e	0.022154
177	0xbd201705	-0.039084453
178	0xbd2553d8	-0.040363163
179	0x3beed650	0.0072887316
180	0x3d028bcb	0.0318716
181	0xbc9be86a	-0.019031722
182	0x3cc08ab2	0.023503635
183	0x3d200921	0.039071206
184	0x3d141fe7	0.036163237
185	0xbbd5dd10	-0.006526597
186	0xbd110f2b	-0.035414856
187	0x3d35f9c9	0.044427667
188	0x3c3d6548	0.011559792
189	0x3d18cbed	0.037303854
190	0x3c955642	0.018229607
191	0xbca40e83	-0.020026451
192	0xbc9025f6	-0.017596226
193	0x3c6a0e3c	0.01428562
194	0x3d4a9485	0.049458046
195	0x3d3b1a17	0.045679178
196	0x3c27a298	0.010231636
197	0x3a75ac80	0.0009371713
198	0x3cf81052	0.03028122
199	0x3ca64212	0.020295177
200	0xbccbc903	-0.024876123
201	0xbc87f466	-0.01659603
202	0x3b9daaa8	0.0048116036
203	0x3cb284ea	0.021791894
204	0x3c16e6f4	0.009210337
205	0x3b16f080	0.0023031533
206	0x3c9850da	0.01859324
207	0x3d020eab	0.03175227
208	0xbd18466e	-0.037176542
209	0xbc618228	-0.013763942
210	0x3c8d8612	0.017275844
211	0xbd33de77	-0.04391333
212	0xbb145780	-0.0022635162
213	0x3d38d005	0.045120258
214	0xbd4b5718	-0.049643606
215	0xbc66fd94	-0.014098544
216	0xbccc389d	-0.024929339
217	0xbd2ccdf2	-0.042188592
218	0x3b9b5158	0.0047399215
219	0x3cb246aa	0.02176221
220	0xbc3562b8	-0.0110709
221	0x3cf90a2e	0.030400362
222	0x3b507800	0.0031809807
223	0x3d15c3d5	0.036563713
224	0x3c7fac84	0.015605096
225	0xbcba02da	-0.022706438
226	0xbd052104	-0.03250219
227	0xbb5afaa0	-0.0033413544
228	0x3d1bed5d	0.038068164
229	0x3c812f32	0.015769575
230	0xbb901028	-0.004396457
231	0x3cd6d07e	0.026222464
232	0x3c14a08c	0.0090714805
233	0xbc48f308	-0.012264974
234	0xbd41cdb0	-0.0473153
235	0x3d0cea3f	0.034403082
236	0xbd1a0f06	-0.037611984
237	0x3d2f5377	0.042804208
238	0xbd0998e5	-0.033593077
239	0xbd44d390	-0.048053324
240	0x3d05a447	0.03262737
241	0x3c6058ac	0.013693016
242	0xbd201915	-0.03908642
243	0xbc13c7cc	-0.009019803
244	0xbd1635fa	-0.03667257
245	0xbc2e3200	-0.010632038
246	0x3cc4c316	0.024018805
247	0x3d2005c1	0.039067987
248	0xbd3e6558	-0.046483368
249	0x3c37a2cc	0.011208247
250	0x3cf7eba6	0.030263733
251	0xba077ec0	-0.00051687285
252	0xbc4babd4	-0.012431104
253	0x3d3466cd	0.04404335
254	0xbca57b67	-0.020200444
255	0x3c4f4a4c	0.012651991

l2.bias f4 [300]
0	0x3d1d87e7	0.038459685
1	0xbd30097e	-0.042977802
2	0x3d25d6fd	0.040488232
3	0xbd0e4178	-0.034730405
4	0x3d96e558	0.073679626
5	0xbc079998	-0.008276366
6	0x3c855bf0	0.01627919
7	0xbd1f4438	-0.038883418
8	0xbd1d5728	-0.038413197
9	0xbd53914c	-0.051652238
10	0xba7f6b1d	-0.0009743439
11	0x3c30e21f	0.010796099
12	0x3d99ae48	0.07503945
13	0x3c831ab5	0.016003946
14	0xbd1d771e	-0.038443677
15	0xbd539774	-0.05165811
16	0xbd071914	-0.0329829
17	0xbd388eac	-0.045057938
18	0x3c31c94c	0.010851216
19	0xbd69cf63	-0.057082545
20	0xbcffd213	-0.0312281
21	0x3d0c0081	0.034180168
22	0xbc8771f6	-0.016533833
23	0x3d1801fd	0.03711127
24	0xbc0f97f4	-0.008764256
25	0x3cf951fe	0.030434605
26	0xbd1157e2	-0.035484202
27	0x3bec93a8	0.0072197504
28	0xbcaa764d	-0.020808363
29	0xbd792ea5	-0.0608355
30	0xbc4d52d4	-0.012531955
31	0x3cce040b	0.025148412
32	0x3d15882b	0.036506813
33	0x3c47f373	0.012204039
34	0x3d8ea753	0.06965508
35	0xbc09b8c6	-0.00840587
36	0x3d0bc137	0.03411981
37	0xbcd0a617	-0.025469823
38	0xbcb0e943	-0.021595603
39	0x3b0f093a	0.0021825568
40	0x3d840e32	0.0644802
41	0x3c9d2936	0.01918469
42	0xbcf4e283	-0.029893165
43	0x3d90755a	0.07053633
44	0x3d151879	0.036400292
45	0x3d05fff9	0.032714818
46	0x3c3ceac8	0.011530586
47	0xbc26e1c7	-0.010185665
48	0x3ba54368	0.005043436
49	0xbcfd5fda	-0.030929495
50	0xbc8bd51a	-0.017069388
51	0x3c9c97d7	0.019115372
52	0xbc17a998	-0.009256743
53	0x3d7a80c2	0.06115795
54	0xbcb08007	-0.021545423
55	0xbba0c280	-0.0049059987
56	0x3d9febf5	0.07808677
57	0xbbc92d99	-0.006139469
58	0xbd083738	-0.033255786
59	0xbb98fd50	-0.004668869
60	0xbd549dbe	-0.051908247
61	0x3d910cdf	0.07082533
62	0xbd10d0d2	-0.035355397
63	0xbb45bd80	-0.0030172765
64	0xbbd2ae98	-0.0064295046
65	0x3d0c9ffa	0.034332253
66	0x3d38b776	0.045096837
67	0x3c49437c	0.012284156
68	0xbd47733a	-0.048693873
69	0xbd6bfa74	-0.057611898
70	0x3dabfa63	0.08397367
71	0x3d156e05	0.036481876
72	0x3c42e21a	0.011894727
73	0xbd47a128	-0.048737675
74	0x3c8d7f47	0.017272605
75	0xbcabf08f	-0.02098873
76	0x3cfee807	0.031116499
77	0x3c98c38a	0.018647928
78	0xbcfc6297	-0.03080873
79	0x3d10e2d7	0.03537258
80	0xbd1a6dc3	-0.037702333
81	0xbcc1127a	-0.02356838
82	0x3ccd6a1a	0.025075007
83	0xbd0c5ebd	-0.034270037
84	0x3d1d3657	0.0383819
85	0x3d2bc2cb	0.041933816
86	0x3d2bad8f	0.041913565
87	0x3ab899c0	0.0014083907
88	0x3c188ed7	0.009311399
89	0xbcae1930	-0.021252245
90	0x3cf310c7	0.029671086
91	0x3d5259d7	0.05135521
92	0x3b8ed458	0.0043588094
93	0x3c956ce2	0.018240396
94	0x3d2f2acd	0.042765427
95	0xbd2f0475	-0.04272886
96	0x3c62ad4c	0.0138352625
97	0x3d13733c	0.035998568
98	0xba940440	-0.001129277
99	0xbc760e00	-0.015017986
100	0x3aa20740	0.001236178
101	0x3ccbcf36	0.02487908
102	0x3c82bea2	0.015960041
103	0x3d6dce9c	0.058058366
104	0xbc437d48	-0.011931725
105	0x3d6331cc	0.055467412
106	0xbade08f7	-0.0016939928
107	0xbc9f5e24	-0.01945407
108	0xbcc7b903	-0.024380213
109	0x3b794050	0.0038032718
110	0xbd1deffa	-0.038558938
111	0xbd0b9176	-0.03407427
112	0xbcd7e39a	-0.026353646
113	0x3af48fee	0.0018658617
114	0x3bbabcc2	0.005698771
115	0x3b863f68	0.004096914
116	0x3c99c474	0.018770434
117	0x3d1e2cab	0.038616817
118	0xbcfae973	-0.030628895
119	0xbd061c92	-0.03274209
120	0xbc0629ac	-0.008188646
121	0xbd1f657e	-0.03891515
122	0xbc66a058	-0.014076315
123	0xbb0b3650	-0.002124209
124	0x3d275f6d	0.04086249
125	0xbba21684	-0.0049465317
126	0x3c120f54	0.008914787
127	0x3c8db5be	0.017298575
128	0x3d0f5849	0.034996305
129	0xbc083e14	-0.008315582
130	0x3d010192	0.03149564
131	0xbd149dbe	-0.036283247
132	0x3d0373d1	0.032092873
133	0xbcd6a4b0	-0.026201576
134	0x3c087834	0.00832944
135	0x3d179ff9	0.037017796
136	0x3cd5b03d	0.026085014
137	0x3cc1e5be	0.02366912
138	0x3da6a8fd	0.08137701
139	0x3d2ad435	0.041706283
140	0xbc32ba37	-0.010908655
141	0x3d970ab3	0.073750876
142	0xbd43a3b5	-0.047763545
143	0xbba19aa5	-0.004931765
144	0x3b62f1a0	0.0034628883
145	0xbc40c445	-0.011765544
146	0x3d8c161c	0.068401545
147	0xbc9c658a	-0.019091386
148	0x3da09798	0.07841414
149	0x3c28a273	0.010292637
150	0x3d81f2c4	0.06345132
151	0xbcec578a	-0.028850336
152	0xbd0f674b	-0.035010617
153	0x3d8230bb	0.06356951
154	0x3cc56ad1	0.024098786
155	0xbd03e495	-0.032200415
156	0x3d92e1b0	0.07171953
157	0xbc86637e	-0.016404863
158	0x3d83855a	0.06421919
159	0x3d02f483	0.031971466
160	0x3c979ded	0.018507922
161	0x3cf88079	0.030334698
162	0x3c6b9351	0.014378385
163	0x3d260599	0.040532682
164	0x3c8cfd62	0.017210666
165	0x3bb978db	0.005660159
166	0xbcd26dba	-0.025687087
167	0xbcae6df0	-0.021292657
168	0xbc89379c	-0.01675015
169	0x3c3d0020	0.011535674
170	0x3d1b6175	0.03793474
171	0xbcf47fc2	-0.029846076
172	0x3d1477f8	0.036247224
173	0x3d904abe	0.07045506
174	0xbd51e4f5	-0.05124374
175	0x3d036593	0.03207929
176	0x3ca223e2	0.0197925
177	0xbd3ad82d	-0.045616318
178	0x3d11d93b	0.035607558
179	0x3c3ad574	0.01140343
180	0x3d282572	0.041051336
181	0xbccd8210	-0.025086433
182	0x3c91ac02	0.017782215
183	0xbcf87a23	-0.030331677
184	0x3cc148b5	0.02359424
185	0xbc17cc38	-0.009264998
186	0x3c12b6a3	0.008954677
187	0x3cc57c94	0.024107255
188	0x3cc52390	0.02406481
189	0xbc1aab4c	-0.009440254
190	0xbcf67bd7	-0.030088348
191	0x3cceb712	0.02523378
192	0x3d149444	0.03627421
193	0x3c881d33	0.016615486
194	0x3c2d00c2	0.010559263
195	0xbcc737ec	-0.024318658
196	0xbcbc59aa	-0.022991974
197	0x3b93ad78	0.004506763
198	0xbd3aa92a	-0.045571484
199	0x3bb8dcc1	0.0056415503
200	0x3b98a880	0.0046587586
201	0x3d31fc75	0.043453652
202	0xbd1b3b5d	-0.03789841
203	0xbcf27a17	-0.029599233
204	0x3d0ffc6b	0.035152834
205	0x3c807ee2	0.015685502
206	0x3d07d145	0.03315856
207	0x3b777515	0.0037758995
208	0x3cff0e9a	0.031134892
209	0xbd39e3e8	-0.045383364
210	0x3ca61045	0.02027143
211	0x3d475dd1	0.048673455
212	0x3d445e07	0.047941234
213	0xbd16d72e	-0.036826305
214	0x3cd21541	0.0256449
215	0xbd0f4080	-0.03497362
216	0x3c77ef4c	0.015132736
217	0x3b5eedc1	0.0034016224
218	0x3a2c3661	0.00065693824
219	0x3cc1d7d2	0.023662481
220	0x3b83d9f0	0.004023783
221	0x3d96de5e	0.07366632
222	0x3cc16a92	0.023610387
223	0xbd0885bd	-0.033330668
224	0xbd0f00c9	-0.03491286
225	0xbc3e8752	-0.011628943
226	0xbb2de630	-0.0026534908
227	0xbad6a060	-0.00163747
228	0x3cd63ff6	0.026153546
229	0xbd2315b5	-0.039815623
230	0xbd0f018a	-0.034913577
231	0xbcc4b087	-0.024009956
232	0xbc6bca02	-0.014391424
233	0x3d78d356	0.06074842
234	0xbc91d714	-0.017802753
235	0x3d234019	0.03985605
236	0xbb3f4ad0	-0.0029188879
237	0x3c83ddae	0.016096916
238	0xbd5faaf4	-0.054606393
239	0x3d11d3b5	0.03560229
240	0xbd2d9c4f	-0.042385396
241	0xbd46eaa2	-0.048563607
242	0xbc9f9bca	-0.019483466
243	0xbcd7a45d	-0.026323492
244	0x3af5102d	0.0018696837
245	0x3d91c7da	0.07118197
246	0xbc27130c	-0.010197412
247	0xbc8c8484	-0.017153032
248	0x3c66f64e	0.01409681
249	0x3d14c4bb	0.03632043
250	0x3dac7d2e	0.08422314
251	0x3cb3e796	0.021961015
252	0x3d306653	0.043066334
253	0xbce508aa	-0.027958233
254	0x3c0f72f1	0.0087554315
255	0xbd1a3fb4	-0.03765841

l3.weight f4 [1, 300]
0	0xbd48f5bc	-0.049062476
1	0xbbb02778	-0.005375799
2	0xbd10dfc5	-0.035369653
3	0xbd4d4d56	-0.05012258
4	0xbd720fd3	-0.059097122
5	0x3d4dcfb6	0.050246917
6	0x3c574e01	0.013141156
7	0xbc84a3ea	-0.016191442
8	0xba0bee80	-0.00053379685
9	0x3d1dc176	0.038514577
10	0xbaae25d1	-0.0013286417
11	0xbd5f5f93	-0.054534506
12	0xbda8cb76	-0.08241932
13	0x3d444df6	0.04792591
14	0xbc85e944	-0.016346581
15	0x3cd5e496	0.026109975
16	0x3cca93d4	0.024728693
17	0x3d0565fe	0.03256797
18	0x3cd1d9e0	0.025616586
19	0x3c1627da	0.009164775
20	0x3c025b2d	0.007956308
21	0x3bb6d380	0.005579412
22	0x3d2af584	0.04173805
23	0x3d432278	0.047640294
24	0x3d493fce	0.049133115
25	0xbca78006	-0.020446789
26	0xbcea4cf2	-0.028601144
27	0x3d3c9254	0.046037987
28	0x3c43e038	0.011955313
29	0x3d2aafd7	0.0416716
30	0xbc7c9a70	-0.01541768
31	0xbd36c570	-0.044621885
32	0x3d4f37a2	0.050590165
33	0xbdb0b78d	-0.086287595
34	0xbd099f67	-0.033599284
35	0xbda04da4	-0.07827309
36	0xbd8cf453	-0.06882539
37	0x3b138e3a	0.0022515194
38	0xbd56d094	-0.05244501
39	0xbd919e0d	-0.07110224
40	0xbdb53783	-0.08848479
41	0x3ba89540	0.005144745
42	0xbd0f8d89	-0.035047088
43	0xbd10f9c7	-0.035394456
44	0x3d4638ca	0.048394002
45	0xba6cb740	-0.0009029992
46	0x3d0bc34c	0.034121796
47	0xbbce968a	-0.0063045667
48	0xbd2ca1a1	-0.04214633
49	0x3d22d12e	0.03975027
50	0x3d01b6de	0.031668536
51	0xbda1070e	-0.07862674
52	0x3c2e36c8	0.010633178
53	0xbd0886f5	-0.03333183
54	0x3cb3e784	0.021960981
55	0xbc7f6900	-0.015588999
56	0xbd2fc225	-0.04290976
57	0x3c8c9617	0.017161412
58	0x3cde5564	0.027140327
59	0x3caea1c8	0.021317378
60	0x3d31b0dd	0.04338156
61	0xbda87f06	-0.08227353
62	0x3cd5ea74	0.026112773
63	0xbcc31b18	-0.02381663
64	0xbc46dd04	-0.012137655
65	0xbd8bd1e2	-0.06827141
66	0xbd243e52	-0.040098496
67	0x3c96652b	0.018358788
68	0x3c979bec	0.018506967
69	0x3c0ed969	0.008718827
70	0xbd45fb12	-0.048335142
71	0xbc570d78	-0.01312577
72	0xbbcc7a44	-0.006240161
73	0x3ca966f9	0.020678984
74	0xbd393f18	-0.045226187
75	0x3bd4f1a6	0.0064985333
76	0xbd3a2455	-0.045444805
77	0x3bd91270	0.0066245124
78	0xbd503332	-0.050830074
79	0x3c3bf1f8	0.011471264
80	0xbd104191	-0.03521878
81	0xbd480f8b	-0.048842948
82	0x3c36dd36	0.011161139
83	0x3d561254	0.052263573
84	0x3d465f06	0.048430465
85	0x3d12835e	0.035769813
86	0xbce1f455	-0.027582327
87	0xbd39f30e	-0.04539781
88	0xbd449cb0	-0.04800099
89	0xbca63b68	-0.020291999
90	0x3c7c6995	0.015406032
91	0xbd3a98bb	-0.04555581
92	0x3aa068e0	0.0012238286
93	0x3cfa9d64	0.030592628
94	0x3d5254de	0.051350467
95	0x3d6576e2	0.05602158
96	0xbd5b15e8	-0.05348769
97	0x3a8e8a0e	0.0010874884
98	0xbcec3149	-0.028832095
99	0x3b981bd8	0.004641991
100	0xbcf4164d	-0.02979579
101	0xbb4bc600	-0.003109336
102	0x3c58fb58	0.013243519
103	0xbd361fac	-0.0444638
104	0x3c1bc178	0.009506576
105	0xbd2ab741	-0.04167867
106	0x3c1f345d	0.009717074
107	0x3caa44ed	0.02078482
108	0xbc78f9a0	-0.015196234
109	0x3d09558e	0.033528857
110	0x3d258ac5	0.040415544
111	0xbc467498	-0.012112759
112	0xbd2e8700	-0.042609215
113	0x3d031436	0.032001697
114	0xbd2ff194	-0.042954996
115	0xbd8a0b0c	-0.06740388
116	0x3d348ed1	0.044081513
117	0x3cf0ad78	0.029379591
118	0x3c61cdc0	0.013781965
119	0x3d6a92fc	0.05726908
120	0x3d6bab52	0.05753643
121	0x3aa08d63	0.0012249168
122	0x3cb22b00	0.02174902
123	0x3b812488	0.0039411224
124	0x3d195a66	0.037439726
125	0xbd6e080d	-0.058113147
126	0x3d172242	0.036897905
127	0xbda35a60	-0.07976222
128	0x3c84b0a5	0.016197512
129	0x3cbd9c1c	0.023145728
130	0x3d07e9b3	0.033181857
131	0x3cc6d257	0.02427022
132	0x39f94800	0.00047546625
133	0xbd49b345	-0.04924323
134	0x3d60c314	0.05487354
135	0xbda32f86	-0.07968049
136	0x3d3e06da	0.046393253
137	0xbc26bba8	-0.010176577
138	0xbda3205b	-0.07965156
139	0xbd37261b	-0.044714075
140	0xbbaf2eef	-0.005346171
141	0xbd5e90a2	-0.05433715
142	0x3cffad23	0.031210488
143	0x3c59310e	0.013256324
144	0x3cc26edc	0.023734502
145	0xbd4c0e9c	-0.04981862
146	0xbd239c2b	-0.039943855
147	0x3d08a838	0.03336355
148	0xbd8549ad	-0.06508193
149	0xbd767b1f	-0.06017601
150	0xbda4a60f	-0.08039486
151	0xbcf45fc5	-0.029830823
152	0x3c1a4c28	0.009417571
153	0xbd0da378	-0.034579724
154	0x3c1b2ed7	0.009471617
155	0x3d1faffa	0.038986184
156	0xbd9a2d22	-0.0752814
157	0xbdba5e2d	-0.09099994
158	0xbd502128	-0.05081287
159	0xbd07aee1	-0.033125762
160	0x3cb8f7c3	0.02257908
161	0xbda18443	-0.07886555
162	0xbd4db4a4	-0.0502211
163	0x3d1fb1c8	0.038987905
164	0x3c81c458	0.015840694
165	0x3c9d941c	0.019235663
166	0x3d29912e	0.04139822
167	0xbd0d0bbe	-0.034435026
168	0xbd4aeadc	-0.049540386
169	0xbd1603cc	-0.036624715
170	0xbacf07a9	-0.001579513
171	0x3ce81adb	0.028333118
172	0xbd333e42	-0.043760546
173	0xbdb4d561	-0.08829761
174	0x3ce353dd	0.02774995
175	0xbd19a04c	-0.037506387
176	0x3d192098	0.0373846
177	0x3ca4fc1c	0.020139746
178	0xba8298c0	-0.0009963736
179	0x3cd3e72b	0.025867065
180	0xbd12fb67	-0.035884287
181	0xbc3039b8	-0.010755949
182	0xbc47abbc	-0.012186941
183	0xbd0524c4	-0.032505766
184	0x3d4d8fe9	0.05018607
185	0x3d2f6080	0.04281664
186	0x3d3a1c4b	0.04543714
187	0x3d2dcfae	0.042434387
188	0x3c78fd3f	0.015197097
189	0xbd315a7c	-0.043299183
190	0x3c8ad5fc	0.016947739
191	0x3ce016cc	0.02735462
192	0xbce95310	-0.02848199
193	0x3b15d00a	0.0022859597
194	0x3ca5fae0	0.020261228
195	0x3bda544e	0.006662882
196	0xbd2c94e6	-0.042134188
197	0xbd7af328	-0.061267048
198	0x3cef6e98	0.02922754
199	0xbd119d15	-0.035550196
200	0x3bc83a60	0.0061104745
201	0x3cca2e60	0.024680316
202	0x3c92fc54	0.017942585
203	0x3b936068	0.0044975765
204	0x3c80c37b	0.015718212
205	0x3cc134bc	0.023584716
206	0xbd1bd8dc	-0.03804861
207	0xbd2b525b	-0.041826587
208	0x3d0bdeb0	0.03414792
209	0xbb770c50	-0.0037696548
210	0x3d2b733e	0.04185795
211	0xbd32b75d	-0.0436319
212	0xbd9c730d	-0.07639132
213	0x3d643ad2	0.055720158
214	0x3c936a4a	0.017995019
215	0xbbd15850	-0.0063887015
216	0xbd477743	-0.04869772
217	0xbd94c870	-0.07264793
218	0xbd73a456	-0.059482895
219	0x3cacbdc7	0.021086587
220	0xbce53778	-0.027980551
221	0xbd67f6e9	-0.056631956
222	0xbcdc57db	-0.026897362
223	0xbc9c9368	-0.019113258
224	0x3cd3c2dd	0.025849754
225	0xbd7fdc78	-0.062466115
226	0x3bcab540	0.0061861575
227	0xbc7f23fc	-0.015572544
228	0x3ca77158	0.020439789
229	0xbd2cdbad	-0.042201687
230	0xbcf581ee	-0.029969182
231	0x3be6f440	0.00704816
232	0x3c6f8ae6	0.014620518
233	0xbd18286c	-0.037147924
234	0xbc0f4710	-0.00874497
235	0x3ccaece4	0.024771161
236	0x3d13ad36	0.03605386
237	0xbcc276d6	-0.023738306
238	0x3c1781b6	0.009247234
239	0xbd8c500e	-0.06851207
240	0xbcd06a06	-0.02544118
241	0x3c60b950	0.013716057
242	0xbcabc2f0	-0.020966977
243	0xbd14e5b0	-0.03635186
244	0xbbda3f7a	-0.006660399
245	0xbd0a4a04	-0.033761993
246	0x3cb902d0	0.022584349
247	0x3d520504	0.051274315
248	0x3d3db339	0.0463135
249	0x3cdfb0b1	0.027305933
250	0xbd7aefb1	-0.061263744
251	0x3be0bda0	0.0068585426
252	0x3b7cd0e0	0.0038576648
253	0x3cb35e24	0.021895476
254	0x3cd661a1	0.0261696
255	0x3cc4cbb8	0.024022922
